{
  "layers" : [
    {
      "pad_r" : 2,
      "fused_relu" : 0,
      "fused_tanh" : 0,
      "debug_info" : "input.1",
      "pad_fill_mode" : 0,
      "pad_b" : 2,
      "pad_l" : 2,
      "top" : "input.1",
      "K" : 3,
      "blob_biases" : 1,
      "stride_x" : 2,
      "name" : "input.1",
      "has_batch_norm" : 0,
      "type" : "convolution",
      "n_groups" : 1,
      "pad_t" : 2,
      "stride_y" : 2,
      "has_biases" : 1,
      "C" : 32,
      "bottom" : "image",
      "weights" : {
        "W_U8" : 3,
        "lut_to_float32" : 5
      },
      "Nx" : 6,
      "pad_mode" : 0,
      "pad_value" : 0,
      "Ny" : 6,
      "n_parallel" : 1
    },
    {
      "bottom" : "input.1",
      "weights" : {

      },
      "mode" : 3,
      "debug_info" : "input.3__silu_sigmoid__",
      "top" : "input.3__silu_sigmoid__",
      "type" : "activation",
      "name" : "input.3__silu_sigmoid__"
    },
    {
      "bottom" : "input.1,input.3__silu_sigmoid__",
      "alpha" : 1,
      "operation" : 1,
      "weights" : {

      },
      "fused_relu" : 0,
      "debug_info" : "input.3",
      "top" : "input.3",
      "type" : "elementwise",
      "name" : "input.3",
      "beta" : 0
    },
    {
      "pad_r" : 1,
      "fused_relu" : 0,
      "fused_tanh" : 0,
      "debug_info" : "input.5",
      "pad_fill_mode" : 0,
      "pad_b" : 1,
      "pad_l" : 1,
      "top" : "input.5",
      "K" : 32,
      "blob_biases" : 7,
      "stride_x" : 2,
      "name" : "input.5",
      "has_batch_norm" : 0,
      "type" : "convolution",
      "n_groups" : 1,
      "pad_t" : 1,
      "stride_y" : 2,
      "has_biases" : 1,
      "C" : 64,
      "bottom" : "input.3",
      "weights" : {
        "W_U8" : 9,
        "lut_to_float32" : 11
      },
      "Nx" : 3,
      "pad_mode" : 0,
      "pad_value" : 0,
      "Ny" : 3,
      "n_parallel" : 1
    },
    {
      "bottom" : "input.5",
      "weights" : {

      },
      "mode" : 3,
      "debug_info" : "input.7__silu_sigmoid__",
      "top" : "input.7__silu_sigmoid__",
      "type" : "activation",
      "name" : "input.7__silu_sigmoid__"
    },
    {
      "bottom" : "input.5,input.7__silu_sigmoid__",
      "alpha" : 1,
      "operation" : 1,
      "weights" : {

      },
      "fused_relu" : 0,
      "debug_info" : "input.7",
      "top" : "input.7",
      "type" : "elementwise",
      "name" : "input.7",
      "beta" : 0
    },
    {
      "pad_r" : 0,
      "fused_relu" : 0,
      "fused_tanh" : 0,
      "debug_info" : "input.9",
      "pad_fill_mode" : 0,
      "pad_b" : 0,
      "pad_l" : 0,
      "top" : "input.9",
      "K" : 64,
      "blob_biases" : 13,
      "name" : "input.9",
      "has_batch_norm" : 0,
      "type" : "convolution",
      "n_groups" : 1,
      "pad_t" : 0,
      "has_biases" : 1,
      "C" : 32,
      "bottom" : "input.7",
      "weights" : {
        "W_U8" : 15,
        "lut_to_float32" : 17
      },
      "Nx" : 1,
      "pad_mode" : 0,
      "pad_value" : 0,
      "Ny" : 1,
      "n_parallel" : 1
    },
    {
      "bottom" : "input.9",
      "weights" : {

      },
      "mode" : 3,
      "debug_info" : "input.11__silu_sigmoid__",
      "top" : "input.11__silu_sigmoid__",
      "type" : "activation",
      "name" : "input.11__silu_sigmoid__"
    },
    {
      "bottom" : "input.9,input.11__silu_sigmoid__",
      "alpha" : 1,
      "operation" : 1,
      "weights" : {

      },
      "fused_relu" : 0,
      "debug_info" : "input.11",
      "top" : "input.11",
      "type" : "elementwise",
      "name" : "input.11",
      "beta" : 0
    },
    {
      "pad_r" : 0,
      "fused_relu" : 0,
      "fused_tanh" : 0,
      "debug_info" : "input.13",
      "pad_fill_mode" : 0,
      "pad_b" : 0,
      "pad_l" : 0,
      "top" : "input.13",
      "K" : 32,
      "blob_biases" : 19,
      "name" : "input.13",
      "has_batch_norm" : 0,
      "type" : "convolution",
      "n_groups" : 1,
      "pad_t" : 0,
      "has_biases" : 1,
      "C" : 32,
      "bottom" : "input.11",
      "weights" : {
        "W_U8" : 21,
        "lut_to_float32" : 23
      },
      "Nx" : 1,
      "pad_mode" : 0,
      "pad_value" : 0,
      "Ny" : 1,
      "n_parallel" : 1
    },
    {
      "bottom" : "input.13",
      "weights" : {

      },
      "mode" : 3,
      "debug_info" : "input.15__silu_sigmoid__",
      "top" : "input.15__silu_sigmoid__",
      "type" : "activation",
      "name" : "input.15__silu_sigmoid__"
    },
    {
      "bottom" : "input.13,input.15__silu_sigmoid__",
      "alpha" : 1,
      "operation" : 1,
      "weights" : {

      },
      "fused_relu" : 0,
      "debug_info" : "input.15",
      "top" : "input.15",
      "type" : "elementwise",
      "name" : "input.15",
      "beta" : 0
    },
    {
      "pad_r" : 1,
      "fused_relu" : 0,
      "fused_tanh" : 0,
      "debug_info" : "input.17",
      "pad_fill_mode" : 0,
      "pad_b" : 1,
      "pad_l" : 1,
      "top" : "input.17",
      "K" : 32,
      "blob_biases" : 25,
      "name" : "input.17",
      "has_batch_norm" : 0,
      "type" : "convolution",
      "n_groups" : 1,
      "pad_t" : 1,
      "has_biases" : 1,
      "C" : 32,
      "bottom" : "input.15",
      "weights" : {
        "W_U8" : 27,
        "lut_to_float32" : 29
      },
      "Nx" : 3,
      "pad_mode" : 0,
      "pad_value" : 0,
      "Ny" : 3,
      "n_parallel" : 1
    },
    {
      "bottom" : "input.17",
      "weights" : {

      },
      "mode" : 3,
      "debug_info" : "110__silu_sigmoid__",
      "top" : "110__silu_sigmoid__",
      "type" : "activation",
      "name" : "110__silu_sigmoid__"
    },
    {
      "bottom" : "input.17,110__silu_sigmoid__",
      "alpha" : 1,
      "operation" : 1,
      "weights" : {

      },
      "fused_relu" : 0,
      "debug_info" : "110",
      "top" : "110",
      "type" : "elementwise",
      "name" : "110",
      "beta" : 0
    },
    {
      "bottom" : "input.11,110",
      "alpha" : 1,
      "operation" : 0,
      "weights" : {

      },
      "fused_relu" : 0,
      "debug_info" : "111",
      "top" : "111",
      "type" : "elementwise",
      "name" : "111",
      "beta" : 0
    },
    {
      "pad_r" : 0,
      "fused_relu" : 0,
      "fused_tanh" : 0,
      "debug_info" : "input.19",
      "pad_fill_mode" : 0,
      "pad_b" : 0,
      "pad_l" : 0,
      "top" : "input.19",
      "K" : 64,
      "blob_biases" : 31,
      "name" : "input.19",
      "has_batch_norm" : 0,
      "type" : "convolution",
      "n_groups" : 1,
      "pad_t" : 0,
      "has_biases" : 1,
      "C" : 32,
      "bottom" : "input.7",
      "weights" : {
        "W_U8" : 33,
        "lut_to_float32" : 35
      },
      "Nx" : 1,
      "pad_mode" : 0,
      "pad_value" : 0,
      "Ny" : 1,
      "n_parallel" : 1
    },
    {
      "bottom" : "input.19",
      "weights" : {

      },
      "mode" : 3,
      "debug_info" : "120__silu_sigmoid__",
      "top" : "120__silu_sigmoid__",
      "type" : "activation",
      "name" : "120__silu_sigmoid__"
    },
    {
      "bottom" : "input.19,120__silu_sigmoid__",
      "alpha" : 1,
      "operation" : 1,
      "weights" : {

      },
      "fused_relu" : 0,
      "debug_info" : "120",
      "top" : "120",
      "type" : "elementwise",
      "name" : "120",
      "beta" : 0
    },
    {
      "weights" : {

      },
      "debug_info" : "input.21",
      "top" : "input.21",
      "type" : "concat",
      "name" : "input.21",
      "bottom" : "111,120"
    },
    {
      "pad_r" : 0,
      "fused_relu" : 0,
      "fused_tanh" : 0,
      "debug_info" : "input.23",
      "pad_fill_mode" : 0,
      "pad_b" : 0,
      "pad_l" : 0,
      "top" : "input.23",
      "K" : 64,
      "blob_biases" : 37,
      "name" : "input.23",
      "has_batch_norm" : 0,
      "type" : "convolution",
      "n_groups" : 1,
      "pad_t" : 0,
      "has_biases" : 1,
      "C" : 64,
      "bottom" : "input.21",
      "weights" : {
        "W_U8" : 39,
        "lut_to_float32" : 41
      },
      "Nx" : 1,
      "pad_mode" : 0,
      "pad_value" : 0,
      "Ny" : 1,
      "n_parallel" : 1
    },
    {
      "bottom" : "input.23",
      "weights" : {

      },
      "mode" : 3,
      "debug_info" : "input.25__silu_sigmoid__",
      "top" : "input.25__silu_sigmoid__",
      "type" : "activation",
      "name" : "input.25__silu_sigmoid__"
    },
    {
      "bottom" : "input.23,input.25__silu_sigmoid__",
      "alpha" : 1,
      "operation" : 1,
      "weights" : {

      },
      "fused_relu" : 0,
      "debug_info" : "input.25",
      "top" : "input.25",
      "type" : "elementwise",
      "name" : "input.25",
      "beta" : 0
    },
    {
      "pad_r" : 1,
      "fused_relu" : 0,
      "fused_tanh" : 0,
      "debug_info" : "input.27",
      "pad_fill_mode" : 0,
      "pad_b" : 1,
      "pad_l" : 1,
      "top" : "input.27",
      "K" : 64,
      "blob_biases" : 43,
      "stride_x" : 2,
      "name" : "input.27",
      "has_batch_norm" : 0,
      "type" : "convolution",
      "n_groups" : 1,
      "pad_t" : 1,
      "stride_y" : 2,
      "has_biases" : 1,
      "C" : 128,
      "bottom" : "input.25",
      "weights" : {
        "W_U8" : 45,
        "lut_to_float32" : 47
      },
      "Nx" : 3,
      "pad_mode" : 0,
      "pad_value" : 0,
      "Ny" : 3,
      "n_parallel" : 1
    },
    {
      "bottom" : "input.27",
      "weights" : {

      },
      "mode" : 3,
      "debug_info" : "input.29__silu_sigmoid__",
      "top" : "input.29__silu_sigmoid__",
      "type" : "activation",
      "name" : "input.29__silu_sigmoid__"
    },
    {
      "bottom" : "input.27,input.29__silu_sigmoid__",
      "alpha" : 1,
      "operation" : 1,
      "weights" : {

      },
      "fused_relu" : 0,
      "debug_info" : "input.29",
      "top" : "input.29",
      "type" : "elementwise",
      "name" : "input.29",
      "beta" : 0
    },
    {
      "pad_r" : 0,
      "fused_relu" : 0,
      "fused_tanh" : 0,
      "debug_info" : "input.31",
      "pad_fill_mode" : 0,
      "pad_b" : 0,
      "pad_l" : 0,
      "top" : "input.31",
      "K" : 128,
      "blob_biases" : 49,
      "name" : "input.31",
      "has_batch_norm" : 0,
      "type" : "convolution",
      "n_groups" : 1,
      "pad_t" : 0,
      "has_biases" : 1,
      "C" : 64,
      "bottom" : "input.29",
      "weights" : {
        "W_U8" : 51,
        "lut_to_float32" : 53
      },
      "Nx" : 1,
      "pad_mode" : 0,
      "pad_value" : 0,
      "Ny" : 1,
      "n_parallel" : 1
    },
    {
      "bottom" : "input.31",
      "weights" : {

      },
      "mode" : 3,
      "debug_info" : "input.33__silu_sigmoid__",
      "top" : "input.33__silu_sigmoid__",
      "type" : "activation",
      "name" : "input.33__silu_sigmoid__"
    },
    {
      "bottom" : "input.31,input.33__silu_sigmoid__",
      "alpha" : 1,
      "operation" : 1,
      "weights" : {

      },
      "fused_relu" : 0,
      "debug_info" : "input.33",
      "top" : "input.33",
      "type" : "elementwise",
      "name" : "input.33",
      "beta" : 0
    },
    {
      "pad_r" : 0,
      "fused_relu" : 0,
      "fused_tanh" : 0,
      "debug_info" : "input.35",
      "pad_fill_mode" : 0,
      "pad_b" : 0,
      "pad_l" : 0,
      "top" : "input.35",
      "K" : 64,
      "blob_biases" : 55,
      "name" : "input.35",
      "has_batch_norm" : 0,
      "type" : "convolution",
      "n_groups" : 1,
      "pad_t" : 0,
      "has_biases" : 1,
      "C" : 64,
      "bottom" : "input.33",
      "weights" : {
        "W_U8" : 57,
        "lut_to_float32" : 59
      },
      "Nx" : 1,
      "pad_mode" : 0,
      "pad_value" : 0,
      "Ny" : 1,
      "n_parallel" : 1
    },
    {
      "bottom" : "input.35",
      "weights" : {

      },
      "mode" : 3,
      "debug_info" : "input.37__silu_sigmoid__",
      "top" : "input.37__silu_sigmoid__",
      "type" : "activation",
      "name" : "input.37__silu_sigmoid__"
    },
    {
      "bottom" : "input.35,input.37__silu_sigmoid__",
      "alpha" : 1,
      "operation" : 1,
      "weights" : {

      },
      "fused_relu" : 0,
      "debug_info" : "input.37",
      "top" : "input.37",
      "type" : "elementwise",
      "name" : "input.37",
      "beta" : 0
    },
    {
      "pad_r" : 1,
      "fused_relu" : 0,
      "fused_tanh" : 0,
      "debug_info" : "input.39",
      "pad_fill_mode" : 0,
      "pad_b" : 1,
      "pad_l" : 1,
      "top" : "input.39",
      "K" : 64,
      "blob_biases" : 61,
      "name" : "input.39",
      "has_batch_norm" : 0,
      "type" : "convolution",
      "n_groups" : 1,
      "pad_t" : 1,
      "has_biases" : 1,
      "C" : 64,
      "bottom" : "input.37",
      "weights" : {
        "W_U8" : 63,
        "lut_to_float32" : 65
      },
      "Nx" : 3,
      "pad_mode" : 0,
      "pad_value" : 0,
      "Ny" : 3,
      "n_parallel" : 1
    },
    {
      "bottom" : "input.39",
      "weights" : {

      },
      "mode" : 3,
      "debug_info" : "175__silu_sigmoid__",
      "top" : "175__silu_sigmoid__",
      "type" : "activation",
      "name" : "175__silu_sigmoid__"
    },
    {
      "bottom" : "input.39,175__silu_sigmoid__",
      "alpha" : 1,
      "operation" : 1,
      "weights" : {

      },
      "fused_relu" : 0,
      "debug_info" : "175",
      "top" : "175",
      "type" : "elementwise",
      "name" : "175",
      "beta" : 0
    },
    {
      "bottom" : "input.33,175",
      "alpha" : 1,
      "operation" : 0,
      "weights" : {

      },
      "fused_relu" : 0,
      "debug_info" : "input.41",
      "top" : "input.41",
      "type" : "elementwise",
      "name" : "input.41",
      "beta" : 0
    },
    {
      "pad_r" : 0,
      "fused_relu" : 0,
      "fused_tanh" : 0,
      "debug_info" : "input.43",
      "pad_fill_mode" : 0,
      "pad_b" : 0,
      "pad_l" : 0,
      "top" : "input.43",
      "K" : 64,
      "blob_biases" : 67,
      "name" : "input.43",
      "has_batch_norm" : 0,
      "type" : "convolution",
      "n_groups" : 1,
      "pad_t" : 0,
      "has_biases" : 1,
      "C" : 64,
      "bottom" : "input.41",
      "weights" : {
        "W_U8" : 69,
        "lut_to_float32" : 71
      },
      "Nx" : 1,
      "pad_mode" : 0,
      "pad_value" : 0,
      "Ny" : 1,
      "n_parallel" : 1
    },
    {
      "bottom" : "input.43",
      "weights" : {

      },
      "mode" : 3,
      "debug_info" : "input.45__silu_sigmoid__",
      "top" : "input.45__silu_sigmoid__",
      "type" : "activation",
      "name" : "input.45__silu_sigmoid__"
    },
    {
      "bottom" : "input.43,input.45__silu_sigmoid__",
      "alpha" : 1,
      "operation" : 1,
      "weights" : {

      },
      "fused_relu" : 0,
      "debug_info" : "input.45",
      "top" : "input.45",
      "type" : "elementwise",
      "name" : "input.45",
      "beta" : 0
    },
    {
      "pad_r" : 1,
      "fused_relu" : 0,
      "fused_tanh" : 0,
      "debug_info" : "input.47",
      "pad_fill_mode" : 0,
      "pad_b" : 1,
      "pad_l" : 1,
      "top" : "input.47",
      "K" : 64,
      "blob_biases" : 73,
      "name" : "input.47",
      "has_batch_norm" : 0,
      "type" : "convolution",
      "n_groups" : 1,
      "pad_t" : 1,
      "has_biases" : 1,
      "C" : 64,
      "bottom" : "input.45",
      "weights" : {
        "W_U8" : 75,
        "lut_to_float32" : 77
      },
      "Nx" : 3,
      "pad_mode" : 0,
      "pad_value" : 0,
      "Ny" : 3,
      "n_parallel" : 1
    },
    {
      "bottom" : "input.47",
      "weights" : {

      },
      "mode" : 3,
      "debug_info" : "196__silu_sigmoid__",
      "top" : "196__silu_sigmoid__",
      "type" : "activation",
      "name" : "196__silu_sigmoid__"
    },
    {
      "bottom" : "input.47,196__silu_sigmoid__",
      "alpha" : 1,
      "operation" : 1,
      "weights" : {

      },
      "fused_relu" : 0,
      "debug_info" : "196",
      "top" : "196",
      "type" : "elementwise",
      "name" : "196",
      "beta" : 0
    },
    {
      "bottom" : "input.41,196",
      "alpha" : 1,
      "operation" : 0,
      "weights" : {

      },
      "fused_relu" : 0,
      "debug_info" : "197",
      "top" : "197",
      "type" : "elementwise",
      "name" : "197",
      "beta" : 0
    },
    {
      "pad_r" : 0,
      "fused_relu" : 0,
      "fused_tanh" : 0,
      "debug_info" : "input.49",
      "pad_fill_mode" : 0,
      "pad_b" : 0,
      "pad_l" : 0,
      "top" : "input.49",
      "K" : 128,
      "blob_biases" : 79,
      "name" : "input.49",
      "has_batch_norm" : 0,
      "type" : "convolution",
      "n_groups" : 1,
      "pad_t" : 0,
      "has_biases" : 1,
      "C" : 64,
      "bottom" : "input.29",
      "weights" : {
        "W_U8" : 81,
        "lut_to_float32" : 83
      },
      "Nx" : 1,
      "pad_mode" : 0,
      "pad_value" : 0,
      "Ny" : 1,
      "n_parallel" : 1
    },
    {
      "bottom" : "input.49",
      "weights" : {

      },
      "mode" : 3,
      "debug_info" : "206__silu_sigmoid__",
      "top" : "206__silu_sigmoid__",
      "type" : "activation",
      "name" : "206__silu_sigmoid__"
    },
    {
      "bottom" : "input.49,206__silu_sigmoid__",
      "alpha" : 1,
      "operation" : 1,
      "weights" : {

      },
      "fused_relu" : 0,
      "debug_info" : "206",
      "top" : "206",
      "type" : "elementwise",
      "name" : "206",
      "beta" : 0
    },
    {
      "weights" : {

      },
      "debug_info" : "input.51",
      "top" : "input.51",
      "type" : "concat",
      "name" : "input.51",
      "bottom" : "197,206"
    },
    {
      "pad_r" : 0,
      "fused_relu" : 0,
      "fused_tanh" : 0,
      "debug_info" : "input.53",
      "pad_fill_mode" : 0,
      "pad_b" : 0,
      "pad_l" : 0,
      "top" : "input.53",
      "K" : 128,
      "blob_biases" : 85,
      "name" : "input.53",
      "has_batch_norm" : 0,
      "type" : "convolution",
      "n_groups" : 1,
      "pad_t" : 0,
      "has_biases" : 1,
      "C" : 128,
      "bottom" : "input.51",
      "weights" : {
        "W_U8" : 87,
        "lut_to_float32" : 89
      },
      "Nx" : 1,
      "pad_mode" : 0,
      "pad_value" : 0,
      "Ny" : 1,
      "n_parallel" : 1
    },
    {
      "bottom" : "input.53",
      "weights" : {

      },
      "mode" : 3,
      "debug_info" : "input.55__silu_sigmoid__",
      "top" : "input.55__silu_sigmoid__",
      "type" : "activation",
      "name" : "input.55__silu_sigmoid__"
    },
    {
      "bottom" : "input.53,input.55__silu_sigmoid__",
      "alpha" : 1,
      "operation" : 1,
      "weights" : {

      },
      "fused_relu" : 0,
      "debug_info" : "input.55",
      "top" : "input.55",
      "type" : "elementwise",
      "name" : "input.55",
      "beta" : 0
    },
    {
      "pad_r" : 1,
      "fused_relu" : 0,
      "fused_tanh" : 0,
      "debug_info" : "input.57",
      "pad_fill_mode" : 0,
      "pad_b" : 1,
      "pad_l" : 1,
      "top" : "input.57",
      "K" : 128,
      "blob_biases" : 91,
      "stride_x" : 2,
      "name" : "input.57",
      "has_batch_norm" : 0,
      "type" : "convolution",
      "n_groups" : 1,
      "pad_t" : 1,
      "stride_y" : 2,
      "has_biases" : 1,
      "C" : 256,
      "bottom" : "input.55",
      "weights" : {
        "W_U8" : 93,
        "lut_to_float32" : 95
      },
      "Nx" : 3,
      "pad_mode" : 0,
      "pad_value" : 0,
      "Ny" : 3,
      "n_parallel" : 1
    },
    {
      "bottom" : "input.57",
      "weights" : {

      },
      "mode" : 3,
      "debug_info" : "input.59__silu_sigmoid__",
      "top" : "input.59__silu_sigmoid__",
      "type" : "activation",
      "name" : "input.59__silu_sigmoid__"
    },
    {
      "bottom" : "input.57,input.59__silu_sigmoid__",
      "alpha" : 1,
      "operation" : 1,
      "weights" : {

      },
      "fused_relu" : 0,
      "debug_info" : "input.59",
      "top" : "input.59",
      "type" : "elementwise",
      "name" : "input.59",
      "beta" : 0
    },
    {
      "pad_r" : 0,
      "fused_relu" : 0,
      "fused_tanh" : 0,
      "debug_info" : "input.61",
      "pad_fill_mode" : 0,
      "pad_b" : 0,
      "pad_l" : 0,
      "top" : "input.61",
      "K" : 256,
      "blob_biases" : 97,
      "name" : "input.61",
      "has_batch_norm" : 0,
      "type" : "convolution",
      "n_groups" : 1,
      "pad_t" : 0,
      "has_biases" : 1,
      "C" : 128,
      "bottom" : "input.59",
      "weights" : {
        "W_U8" : 99,
        "lut_to_float32" : 101
      },
      "Nx" : 1,
      "pad_mode" : 0,
      "pad_value" : 0,
      "Ny" : 1,
      "n_parallel" : 1
    },
    {
      "bottom" : "input.61",
      "weights" : {

      },
      "mode" : 3,
      "debug_info" : "input.63__silu_sigmoid__",
      "top" : "input.63__silu_sigmoid__",
      "type" : "activation",
      "name" : "input.63__silu_sigmoid__"
    },
    {
      "bottom" : "input.61,input.63__silu_sigmoid__",
      "alpha" : 1,
      "operation" : 1,
      "weights" : {

      },
      "fused_relu" : 0,
      "debug_info" : "input.63",
      "top" : "input.63",
      "type" : "elementwise",
      "name" : "input.63",
      "beta" : 0
    },
    {
      "pad_r" : 0,
      "fused_relu" : 0,
      "fused_tanh" : 0,
      "debug_info" : "input.65",
      "pad_fill_mode" : 0,
      "pad_b" : 0,
      "pad_l" : 0,
      "top" : "input.65",
      "K" : 128,
      "blob_biases" : 103,
      "name" : "input.65",
      "has_batch_norm" : 0,
      "type" : "convolution",
      "n_groups" : 1,
      "pad_t" : 0,
      "has_biases" : 1,
      "C" : 128,
      "bottom" : "input.63",
      "weights" : {
        "W_U8" : 105,
        "lut_to_float32" : 107
      },
      "Nx" : 1,
      "pad_mode" : 0,
      "pad_value" : 0,
      "Ny" : 1,
      "n_parallel" : 1
    },
    {
      "bottom" : "input.65",
      "weights" : {

      },
      "mode" : 3,
      "debug_info" : "input.67__silu_sigmoid__",
      "top" : "input.67__silu_sigmoid__",
      "type" : "activation",
      "name" : "input.67__silu_sigmoid__"
    },
    {
      "bottom" : "input.65,input.67__silu_sigmoid__",
      "alpha" : 1,
      "operation" : 1,
      "weights" : {

      },
      "fused_relu" : 0,
      "debug_info" : "input.67",
      "top" : "input.67",
      "type" : "elementwise",
      "name" : "input.67",
      "beta" : 0
    },
    {
      "pad_r" : 1,
      "fused_relu" : 0,
      "fused_tanh" : 0,
      "debug_info" : "input.69",
      "pad_fill_mode" : 0,
      "pad_b" : 1,
      "pad_l" : 1,
      "top" : "input.69",
      "K" : 128,
      "blob_biases" : 109,
      "name" : "input.69",
      "has_batch_norm" : 0,
      "type" : "convolution",
      "n_groups" : 1,
      "pad_t" : 1,
      "has_biases" : 1,
      "C" : 128,
      "bottom" : "input.67",
      "weights" : {
        "W_U8" : 111,
        "lut_to_float32" : 113
      },
      "Nx" : 3,
      "pad_mode" : 0,
      "pad_value" : 0,
      "Ny" : 3,
      "n_parallel" : 1
    },
    {
      "bottom" : "input.69",
      "weights" : {

      },
      "mode" : 3,
      "debug_info" : "262__silu_sigmoid__",
      "top" : "262__silu_sigmoid__",
      "type" : "activation",
      "name" : "262__silu_sigmoid__"
    },
    {
      "bottom" : "input.69,262__silu_sigmoid__",
      "alpha" : 1,
      "operation" : 1,
      "weights" : {

      },
      "fused_relu" : 0,
      "debug_info" : "262",
      "top" : "262",
      "type" : "elementwise",
      "name" : "262",
      "beta" : 0
    },
    {
      "bottom" : "input.63,262",
      "alpha" : 1,
      "operation" : 0,
      "weights" : {

      },
      "fused_relu" : 0,
      "debug_info" : "input.71",
      "top" : "input.71",
      "type" : "elementwise",
      "name" : "input.71",
      "beta" : 0
    },
    {
      "pad_r" : 0,
      "fused_relu" : 0,
      "fused_tanh" : 0,
      "debug_info" : "input.73",
      "pad_fill_mode" : 0,
      "pad_b" : 0,
      "pad_l" : 0,
      "top" : "input.73",
      "K" : 128,
      "blob_biases" : 115,
      "name" : "input.73",
      "has_batch_norm" : 0,
      "type" : "convolution",
      "n_groups" : 1,
      "pad_t" : 0,
      "has_biases" : 1,
      "C" : 128,
      "bottom" : "input.71",
      "weights" : {
        "W_U8" : 117,
        "lut_to_float32" : 119
      },
      "Nx" : 1,
      "pad_mode" : 0,
      "pad_value" : 0,
      "Ny" : 1,
      "n_parallel" : 1
    },
    {
      "bottom" : "input.73",
      "weights" : {

      },
      "mode" : 3,
      "debug_info" : "input.75__silu_sigmoid__",
      "top" : "input.75__silu_sigmoid__",
      "type" : "activation",
      "name" : "input.75__silu_sigmoid__"
    },
    {
      "bottom" : "input.73,input.75__silu_sigmoid__",
      "alpha" : 1,
      "operation" : 1,
      "weights" : {

      },
      "fused_relu" : 0,
      "debug_info" : "input.75",
      "top" : "input.75",
      "type" : "elementwise",
      "name" : "input.75",
      "beta" : 0
    },
    {
      "pad_r" : 1,
      "fused_relu" : 0,
      "fused_tanh" : 0,
      "debug_info" : "input.77",
      "pad_fill_mode" : 0,
      "pad_b" : 1,
      "pad_l" : 1,
      "top" : "input.77",
      "K" : 128,
      "blob_biases" : 121,
      "name" : "input.77",
      "has_batch_norm" : 0,
      "type" : "convolution",
      "n_groups" : 1,
      "pad_t" : 1,
      "has_biases" : 1,
      "C" : 128,
      "bottom" : "input.75",
      "weights" : {
        "W_U8" : 123,
        "lut_to_float32" : 125
      },
      "Nx" : 3,
      "pad_mode" : 0,
      "pad_value" : 0,
      "Ny" : 3,
      "n_parallel" : 1
    },
    {
      "bottom" : "input.77",
      "weights" : {

      },
      "mode" : 3,
      "debug_info" : "283__silu_sigmoid__",
      "top" : "283__silu_sigmoid__",
      "type" : "activation",
      "name" : "283__silu_sigmoid__"
    },
    {
      "bottom" : "input.77,283__silu_sigmoid__",
      "alpha" : 1,
      "operation" : 1,
      "weights" : {

      },
      "fused_relu" : 0,
      "debug_info" : "283",
      "top" : "283",
      "type" : "elementwise",
      "name" : "283",
      "beta" : 0
    },
    {
      "bottom" : "input.71,283",
      "alpha" : 1,
      "operation" : 0,
      "weights" : {

      },
      "fused_relu" : 0,
      "debug_info" : "input.79",
      "top" : "input.79",
      "type" : "elementwise",
      "name" : "input.79",
      "beta" : 0
    },
    {
      "pad_r" : 0,
      "fused_relu" : 0,
      "fused_tanh" : 0,
      "debug_info" : "input.81",
      "pad_fill_mode" : 0,
      "pad_b" : 0,
      "pad_l" : 0,
      "top" : "input.81",
      "K" : 128,
      "blob_biases" : 127,
      "name" : "input.81",
      "has_batch_norm" : 0,
      "type" : "convolution",
      "n_groups" : 1,
      "pad_t" : 0,
      "has_biases" : 1,
      "C" : 128,
      "bottom" : "input.79",
      "weights" : {
        "W_U8" : 129,
        "lut_to_float32" : 131
      },
      "Nx" : 1,
      "pad_mode" : 0,
      "pad_value" : 0,
      "Ny" : 1,
      "n_parallel" : 1
    },
    {
      "bottom" : "input.81",
      "weights" : {

      },
      "mode" : 3,
      "debug_info" : "input.83__silu_sigmoid__",
      "top" : "input.83__silu_sigmoid__",
      "type" : "activation",
      "name" : "input.83__silu_sigmoid__"
    },
    {
      "bottom" : "input.81,input.83__silu_sigmoid__",
      "alpha" : 1,
      "operation" : 1,
      "weights" : {

      },
      "fused_relu" : 0,
      "debug_info" : "input.83",
      "top" : "input.83",
      "type" : "elementwise",
      "name" : "input.83",
      "beta" : 0
    },
    {
      "pad_r" : 1,
      "fused_relu" : 0,
      "fused_tanh" : 0,
      "debug_info" : "input.85",
      "pad_fill_mode" : 0,
      "pad_b" : 1,
      "pad_l" : 1,
      "top" : "input.85",
      "K" : 128,
      "blob_biases" : 133,
      "name" : "input.85",
      "has_batch_norm" : 0,
      "type" : "convolution",
      "n_groups" : 1,
      "pad_t" : 1,
      "has_biases" : 1,
      "C" : 128,
      "bottom" : "input.83",
      "weights" : {
        "W_U8" : 135,
        "lut_to_float32" : 137
      },
      "Nx" : 3,
      "pad_mode" : 0,
      "pad_value" : 0,
      "Ny" : 3,
      "n_parallel" : 1
    },
    {
      "bottom" : "input.85",
      "weights" : {

      },
      "mode" : 3,
      "debug_info" : "304__silu_sigmoid__",
      "top" : "304__silu_sigmoid__",
      "type" : "activation",
      "name" : "304__silu_sigmoid__"
    },
    {
      "bottom" : "input.85,304__silu_sigmoid__",
      "alpha" : 1,
      "operation" : 1,
      "weights" : {

      },
      "fused_relu" : 0,
      "debug_info" : "304",
      "top" : "304",
      "type" : "elementwise",
      "name" : "304",
      "beta" : 0
    },
    {
      "bottom" : "input.79,304",
      "alpha" : 1,
      "operation" : 0,
      "weights" : {

      },
      "fused_relu" : 0,
      "debug_info" : "305",
      "top" : "305",
      "type" : "elementwise",
      "name" : "305",
      "beta" : 0
    },
    {
      "pad_r" : 0,
      "fused_relu" : 0,
      "fused_tanh" : 0,
      "debug_info" : "input.87",
      "pad_fill_mode" : 0,
      "pad_b" : 0,
      "pad_l" : 0,
      "top" : "input.87",
      "K" : 256,
      "blob_biases" : 139,
      "name" : "input.87",
      "has_batch_norm" : 0,
      "type" : "convolution",
      "n_groups" : 1,
      "pad_t" : 0,
      "has_biases" : 1,
      "C" : 128,
      "bottom" : "input.59",
      "weights" : {
        "W_U8" : 141,
        "lut_to_float32" : 143
      },
      "Nx" : 1,
      "pad_mode" : 0,
      "pad_value" : 0,
      "Ny" : 1,
      "n_parallel" : 1
    },
    {
      "bottom" : "input.87",
      "weights" : {

      },
      "mode" : 3,
      "debug_info" : "314__silu_sigmoid__",
      "top" : "314__silu_sigmoid__",
      "type" : "activation",
      "name" : "314__silu_sigmoid__"
    },
    {
      "bottom" : "input.87,314__silu_sigmoid__",
      "alpha" : 1,
      "operation" : 1,
      "weights" : {

      },
      "fused_relu" : 0,
      "debug_info" : "314",
      "top" : "314",
      "type" : "elementwise",
      "name" : "314",
      "beta" : 0
    },
    {
      "weights" : {

      },
      "debug_info" : "input.89",
      "top" : "input.89",
      "type" : "concat",
      "name" : "input.89",
      "bottom" : "305,314"
    },
    {
      "pad_r" : 0,
      "fused_relu" : 0,
      "fused_tanh" : 0,
      "debug_info" : "input.91",
      "pad_fill_mode" : 0,
      "pad_b" : 0,
      "pad_l" : 0,
      "top" : "input.91",
      "K" : 256,
      "blob_biases" : 145,
      "name" : "input.91",
      "has_batch_norm" : 0,
      "type" : "convolution",
      "n_groups" : 1,
      "pad_t" : 0,
      "has_biases" : 1,
      "C" : 256,
      "bottom" : "input.89",
      "weights" : {
        "W_U8" : 147,
        "lut_to_float32" : 149
      },
      "Nx" : 1,
      "pad_mode" : 0,
      "pad_value" : 0,
      "Ny" : 1,
      "n_parallel" : 1
    },
    {
      "bottom" : "input.91",
      "weights" : {

      },
      "mode" : 3,
      "debug_info" : "input.93__silu_sigmoid__",
      "top" : "input.93__silu_sigmoid__",
      "type" : "activation",
      "name" : "input.93__silu_sigmoid__"
    },
    {
      "bottom" : "input.91,input.93__silu_sigmoid__",
      "alpha" : 1,
      "operation" : 1,
      "weights" : {

      },
      "fused_relu" : 0,
      "debug_info" : "input.93",
      "top" : "input.93",
      "type" : "elementwise",
      "name" : "input.93",
      "beta" : 0
    },
    {
      "pad_r" : 1,
      "fused_relu" : 0,
      "fused_tanh" : 0,
      "debug_info" : "input.95",
      "pad_fill_mode" : 0,
      "pad_b" : 1,
      "pad_l" : 1,
      "top" : "input.95",
      "K" : 256,
      "blob_biases" : 151,
      "stride_x" : 2,
      "name" : "input.95",
      "has_batch_norm" : 0,
      "type" : "convolution",
      "n_groups" : 1,
      "pad_t" : 1,
      "stride_y" : 2,
      "has_biases" : 1,
      "C" : 512,
      "bottom" : "input.93",
      "weights" : {
        "W_U8" : 153,
        "lut_to_float32" : 155
      },
      "Nx" : 3,
      "pad_mode" : 0,
      "pad_value" : 0,
      "Ny" : 3,
      "n_parallel" : 1
    },
    {
      "bottom" : "input.95",
      "weights" : {

      },
      "mode" : 3,
      "debug_info" : "input.97__silu_sigmoid__",
      "top" : "input.97__silu_sigmoid__",
      "type" : "activation",
      "name" : "input.97__silu_sigmoid__"
    },
    {
      "bottom" : "input.95,input.97__silu_sigmoid__",
      "alpha" : 1,
      "operation" : 1,
      "weights" : {

      },
      "fused_relu" : 0,
      "debug_info" : "input.97",
      "top" : "input.97",
      "type" : "elementwise",
      "name" : "input.97",
      "beta" : 0
    },
    {
      "pad_r" : 0,
      "fused_relu" : 0,
      "fused_tanh" : 0,
      "debug_info" : "input.99",
      "pad_fill_mode" : 0,
      "pad_b" : 0,
      "pad_l" : 0,
      "top" : "input.99",
      "K" : 512,
      "blob_biases" : 157,
      "name" : "input.99",
      "has_batch_norm" : 0,
      "type" : "convolution",
      "n_groups" : 1,
      "pad_t" : 0,
      "has_biases" : 1,
      "C" : 256,
      "bottom" : "input.97",
      "weights" : {
        "W_U8" : 159,
        "lut_to_float32" : 161
      },
      "Nx" : 1,
      "pad_mode" : 0,
      "pad_value" : 0,
      "Ny" : 1,
      "n_parallel" : 1
    },
    {
      "bottom" : "input.99",
      "weights" : {

      },
      "mode" : 3,
      "debug_info" : "input.101__silu_sigmoid__",
      "top" : "input.101__silu_sigmoid__",
      "type" : "activation",
      "name" : "input.101__silu_sigmoid__"
    },
    {
      "bottom" : "input.99,input.101__silu_sigmoid__",
      "alpha" : 1,
      "operation" : 1,
      "weights" : {

      },
      "fused_relu" : 0,
      "debug_info" : "input.101",
      "top" : "input.101",
      "type" : "elementwise",
      "name" : "input.101",
      "beta" : 0
    },
    {
      "pad_r" : 0,
      "fused_relu" : 0,
      "fused_tanh" : 0,
      "debug_info" : "input.103",
      "pad_fill_mode" : 0,
      "pad_b" : 0,
      "pad_l" : 0,
      "top" : "input.103",
      "K" : 256,
      "blob_biases" : 163,
      "name" : "input.103",
      "has_batch_norm" : 0,
      "type" : "convolution",
      "n_groups" : 1,
      "pad_t" : 0,
      "has_biases" : 1,
      "C" : 256,
      "bottom" : "input.101",
      "weights" : {
        "W_U8" : 165,
        "lut_to_float32" : 167
      },
      "Nx" : 1,
      "pad_mode" : 0,
      "pad_value" : 0,
      "Ny" : 1,
      "n_parallel" : 1
    },
    {
      "bottom" : "input.103",
      "weights" : {

      },
      "mode" : 3,
      "debug_info" : "input.105__silu_sigmoid__",
      "top" : "input.105__silu_sigmoid__",
      "type" : "activation",
      "name" : "input.105__silu_sigmoid__"
    },
    {
      "bottom" : "input.103,input.105__silu_sigmoid__",
      "alpha" : 1,
      "operation" : 1,
      "weights" : {

      },
      "fused_relu" : 0,
      "debug_info" : "input.105",
      "top" : "input.105",
      "type" : "elementwise",
      "name" : "input.105",
      "beta" : 0
    },
    {
      "pad_r" : 1,
      "fused_relu" : 0,
      "fused_tanh" : 0,
      "debug_info" : "input.107",
      "pad_fill_mode" : 0,
      "pad_b" : 1,
      "pad_l" : 1,
      "top" : "input.107",
      "K" : 256,
      "blob_biases" : 169,
      "name" : "input.107",
      "has_batch_norm" : 0,
      "type" : "convolution",
      "n_groups" : 1,
      "pad_t" : 1,
      "has_biases" : 1,
      "C" : 256,
      "bottom" : "input.105",
      "weights" : {
        "W_U8" : 171,
        "lut_to_float32" : 173
      },
      "Nx" : 3,
      "pad_mode" : 0,
      "pad_value" : 0,
      "Ny" : 3,
      "n_parallel" : 1
    },
    {
      "bottom" : "input.107",
      "weights" : {

      },
      "mode" : 3,
      "debug_info" : "368__silu_sigmoid__",
      "top" : "368__silu_sigmoid__",
      "type" : "activation",
      "name" : "368__silu_sigmoid__"
    },
    {
      "bottom" : "input.107,368__silu_sigmoid__",
      "alpha" : 1,
      "operation" : 1,
      "weights" : {

      },
      "fused_relu" : 0,
      "debug_info" : "368",
      "top" : "368",
      "type" : "elementwise",
      "name" : "368",
      "beta" : 0
    },
    {
      "bottom" : "input.101,368",
      "alpha" : 1,
      "operation" : 0,
      "weights" : {

      },
      "fused_relu" : 0,
      "debug_info" : "369",
      "top" : "369",
      "type" : "elementwise",
      "name" : "369",
      "beta" : 0
    },
    {
      "pad_r" : 0,
      "fused_relu" : 0,
      "fused_tanh" : 0,
      "debug_info" : "input.109",
      "pad_fill_mode" : 0,
      "pad_b" : 0,
      "pad_l" : 0,
      "top" : "input.109",
      "K" : 512,
      "blob_biases" : 175,
      "name" : "input.109",
      "has_batch_norm" : 0,
      "type" : "convolution",
      "n_groups" : 1,
      "pad_t" : 0,
      "has_biases" : 1,
      "C" : 256,
      "bottom" : "input.97",
      "weights" : {
        "W_U8" : 177,
        "lut_to_float32" : 179
      },
      "Nx" : 1,
      "pad_mode" : 0,
      "pad_value" : 0,
      "Ny" : 1,
      "n_parallel" : 1
    },
    {
      "bottom" : "input.109",
      "weights" : {

      },
      "mode" : 3,
      "debug_info" : "378__silu_sigmoid__",
      "top" : "378__silu_sigmoid__",
      "type" : "activation",
      "name" : "378__silu_sigmoid__"
    },
    {
      "bottom" : "input.109,378__silu_sigmoid__",
      "alpha" : 1,
      "operation" : 1,
      "weights" : {

      },
      "fused_relu" : 0,
      "debug_info" : "378",
      "top" : "378",
      "type" : "elementwise",
      "name" : "378",
      "beta" : 0
    },
    {
      "weights" : {

      },
      "debug_info" : "input.111",
      "top" : "input.111",
      "type" : "concat",
      "name" : "input.111",
      "bottom" : "369,378"
    },
    {
      "pad_r" : 0,
      "fused_relu" : 0,
      "fused_tanh" : 0,
      "debug_info" : "input.113",
      "pad_fill_mode" : 0,
      "pad_b" : 0,
      "pad_l" : 0,
      "top" : "input.113",
      "K" : 512,
      "blob_biases" : 181,
      "name" : "input.113",
      "has_batch_norm" : 0,
      "type" : "convolution",
      "n_groups" : 1,
      "pad_t" : 0,
      "has_biases" : 1,
      "C" : 512,
      "bottom" : "input.111",
      "weights" : {
        "W_U8" : 183,
        "lut_to_float32" : 185
      },
      "Nx" : 1,
      "pad_mode" : 0,
      "pad_value" : 0,
      "Ny" : 1,
      "n_parallel" : 1
    },
    {
      "bottom" : "input.113",
      "weights" : {

      },
      "mode" : 3,
      "debug_info" : "input.115__silu_sigmoid__",
      "top" : "input.115__silu_sigmoid__",
      "type" : "activation",
      "name" : "input.115__silu_sigmoid__"
    },
    {
      "bottom" : "input.113,input.115__silu_sigmoid__",
      "alpha" : 1,
      "operation" : 1,
      "weights" : {

      },
      "fused_relu" : 0,
      "debug_info" : "input.115",
      "top" : "input.115",
      "type" : "elementwise",
      "name" : "input.115",
      "beta" : 0
    },
    {
      "pad_r" : 0,
      "fused_relu" : 0,
      "fused_tanh" : 0,
      "debug_info" : "input.117",
      "pad_fill_mode" : 0,
      "pad_b" : 0,
      "pad_l" : 0,
      "top" : "input.117",
      "K" : 512,
      "blob_biases" : 187,
      "name" : "input.117",
      "has_batch_norm" : 0,
      "type" : "convolution",
      "n_groups" : 1,
      "pad_t" : 0,
      "has_biases" : 1,
      "C" : 256,
      "bottom" : "input.115",
      "weights" : {
        "W_U8" : 189,
        "lut_to_float32" : 191
      },
      "Nx" : 1,
      "pad_mode" : 0,
      "pad_value" : 0,
      "Ny" : 1,
      "n_parallel" : 1
    },
    {
      "bottom" : "input.117",
      "weights" : {

      },
      "mode" : 3,
      "debug_info" : "input.119__silu_sigmoid__",
      "top" : "input.119__silu_sigmoid__",
      "type" : "activation",
      "name" : "input.119__silu_sigmoid__"
    },
    {
      "bottom" : "input.117,input.119__silu_sigmoid__",
      "alpha" : 1,
      "operation" : 1,
      "weights" : {

      },
      "fused_relu" : 0,
      "debug_info" : "input.119",
      "top" : "input.119",
      "type" : "elementwise",
      "name" : "input.119",
      "beta" : 0
    },
    {
      "pad_r" : 2,
      "debug_info" : "input.121",
      "pad_fill_mode" : 0,
      "pad_b" : 2,
      "pad_l" : 2,
      "size_x" : 5,
      "top" : "input.121",
      "top_shape_style" : 0,
      "stride_x" : 1,
      "avg_or_max" : 1,
      "average_count_exclude_padding" : 1,
      "type" : "pool",
      "name" : "input.121",
      "pad_t" : 2,
      "stride_y" : 1,
      "bottom" : "input.119",
      "weights" : {

      },
      "pad_mode" : 0,
      "size_y" : 5,
      "pad_value" : 0
    },
    {
      "pad_r" : 2,
      "debug_info" : "input.123",
      "pad_fill_mode" : 0,
      "pad_b" : 2,
      "pad_l" : 2,
      "size_x" : 5,
      "top" : "input.123",
      "top_shape_style" : 0,
      "stride_x" : 1,
      "avg_or_max" : 1,
      "average_count_exclude_padding" : 1,
      "type" : "pool",
      "name" : "input.123",
      "pad_t" : 2,
      "stride_y" : 1,
      "bottom" : "input.121",
      "weights" : {

      },
      "pad_mode" : 0,
      "size_y" : 5,
      "pad_value" : 0
    },
    {
      "pad_r" : 2,
      "debug_info" : "415",
      "pad_fill_mode" : 0,
      "pad_b" : 2,
      "pad_l" : 2,
      "size_x" : 5,
      "top" : "415",
      "top_shape_style" : 0,
      "stride_x" : 1,
      "avg_or_max" : 1,
      "average_count_exclude_padding" : 1,
      "type" : "pool",
      "name" : "415",
      "pad_t" : 2,
      "stride_y" : 1,
      "bottom" : "input.123",
      "weights" : {

      },
      "pad_mode" : 0,
      "size_y" : 5,
      "pad_value" : 0
    },
    {
      "weights" : {

      },
      "debug_info" : "input.125",
      "top" : "input.125",
      "type" : "concat",
      "name" : "input.125",
      "bottom" : "input.119,input.121,input.123,415"
    },
    {
      "pad_r" : 0,
      "fused_relu" : 0,
      "fused_tanh" : 0,
      "debug_info" : "input.127",
      "pad_fill_mode" : 0,
      "pad_b" : 0,
      "pad_l" : 0,
      "top" : "input.127",
      "K" : 1024,
      "blob_biases" : 193,
      "name" : "input.127",
      "has_batch_norm" : 0,
      "type" : "convolution",
      "n_groups" : 1,
      "pad_t" : 0,
      "has_biases" : 1,
      "C" : 512,
      "bottom" : "input.125",
      "weights" : {
        "W_U8" : 195,
        "lut_to_float32" : 197
      },
      "Nx" : 1,
      "pad_mode" : 0,
      "pad_value" : 0,
      "Ny" : 1,
      "n_parallel" : 1
    },
    {
      "bottom" : "input.127",
      "weights" : {

      },
      "mode" : 3,
      "debug_info" : "input.129__silu_sigmoid__",
      "top" : "input.129__silu_sigmoid__",
      "type" : "activation",
      "name" : "input.129__silu_sigmoid__"
    },
    {
      "bottom" : "input.127,input.129__silu_sigmoid__",
      "alpha" : 1,
      "operation" : 1,
      "weights" : {

      },
      "fused_relu" : 0,
      "debug_info" : "input.129",
      "top" : "input.129",
      "type" : "elementwise",
      "name" : "input.129",
      "beta" : 0
    },
    {
      "pad_r" : 0,
      "fused_relu" : 0,
      "fused_tanh" : 0,
      "debug_info" : "input.131",
      "pad_fill_mode" : 0,
      "pad_b" : 0,
      "pad_l" : 0,
      "top" : "input.131",
      "K" : 512,
      "blob_biases" : 199,
      "name" : "input.131",
      "has_batch_norm" : 0,
      "type" : "convolution",
      "n_groups" : 1,
      "pad_t" : 0,
      "has_biases" : 1,
      "C" : 256,
      "bottom" : "input.129",
      "weights" : {
        "W_U8" : 201,
        "lut_to_float32" : 203
      },
      "Nx" : 1,
      "pad_mode" : 0,
      "pad_value" : 0,
      "Ny" : 1,
      "n_parallel" : 1
    },
    {
      "bottom" : "input.131",
      "weights" : {

      },
      "mode" : 3,
      "debug_info" : "input.133__silu_sigmoid__",
      "top" : "input.133__silu_sigmoid__",
      "type" : "activation",
      "name" : "input.133__silu_sigmoid__"
    },
    {
      "bottom" : "input.131,input.133__silu_sigmoid__",
      "alpha" : 1,
      "operation" : 1,
      "weights" : {

      },
      "fused_relu" : 0,
      "debug_info" : "input.133",
      "top" : "input.133",
      "type" : "elementwise",
      "name" : "input.133",
      "beta" : 0
    },
    {
      "top" : "437",
      "use_fractional_scale_factors" : false,
      "weights" : {

      },
      "fractional_scaling_factor_y" : 1,
      "type" : "upsample",
      "scaling_factor_x" : 2,
      "mode" : 0,
      "align_corners" : 0,
      "bottom" : "input.133",
      "debug_info" : "437",
      "fractional_scaling_factor_x" : 1,
      "is_legacy_mode" : 1,
      "name" : "437",
      "scaling_factor_y" : 2
    },
    {
      "weights" : {

      },
      "debug_info" : "input.135",
      "top" : "input.135",
      "type" : "concat",
      "name" : "input.135",
      "bottom" : "437,input.93"
    },
    {
      "pad_r" : 0,
      "fused_relu" : 0,
      "fused_tanh" : 0,
      "debug_info" : "input.137",
      "pad_fill_mode" : 0,
      "pad_b" : 0,
      "pad_l" : 0,
      "top" : "input.137",
      "K" : 512,
      "blob_biases" : 205,
      "name" : "input.137",
      "has_batch_norm" : 0,
      "type" : "convolution",
      "n_groups" : 1,
      "pad_t" : 0,
      "has_biases" : 1,
      "C" : 128,
      "bottom" : "input.135",
      "weights" : {
        "W_U8" : 207,
        "lut_to_float32" : 209
      },
      "Nx" : 1,
      "pad_mode" : 0,
      "pad_value" : 0,
      "Ny" : 1,
      "n_parallel" : 1
    },
    {
      "bottom" : "input.137",
      "weights" : {

      },
      "mode" : 3,
      "debug_info" : "input.139__silu_sigmoid__",
      "top" : "input.139__silu_sigmoid__",
      "type" : "activation",
      "name" : "input.139__silu_sigmoid__"
    },
    {
      "bottom" : "input.137,input.139__silu_sigmoid__",
      "alpha" : 1,
      "operation" : 1,
      "weights" : {

      },
      "fused_relu" : 0,
      "debug_info" : "input.139",
      "top" : "input.139",
      "type" : "elementwise",
      "name" : "input.139",
      "beta" : 0
    },
    {
      "pad_r" : 0,
      "fused_relu" : 0,
      "fused_tanh" : 0,
      "debug_info" : "input.141",
      "pad_fill_mode" : 0,
      "pad_b" : 0,
      "pad_l" : 0,
      "top" : "input.141",
      "K" : 128,
      "blob_biases" : 211,
      "name" : "input.141",
      "has_batch_norm" : 0,
      "type" : "convolution",
      "n_groups" : 1,
      "pad_t" : 0,
      "has_biases" : 1,
      "C" : 128,
      "bottom" : "input.139",
      "weights" : {
        "W_U8" : 213,
        "lut_to_float32" : 215
      },
      "Nx" : 1,
      "pad_mode" : 0,
      "pad_value" : 0,
      "Ny" : 1,
      "n_parallel" : 1
    },
    {
      "bottom" : "input.141",
      "weights" : {

      },
      "mode" : 3,
      "debug_info" : "input.143__silu_sigmoid__",
      "top" : "input.143__silu_sigmoid__",
      "type" : "activation",
      "name" : "input.143__silu_sigmoid__"
    },
    {
      "bottom" : "input.141,input.143__silu_sigmoid__",
      "alpha" : 1,
      "operation" : 1,
      "weights" : {

      },
      "fused_relu" : 0,
      "debug_info" : "input.143",
      "top" : "input.143",
      "type" : "elementwise",
      "name" : "input.143",
      "beta" : 0
    },
    {
      "pad_r" : 1,
      "fused_relu" : 0,
      "fused_tanh" : 0,
      "debug_info" : "input.145",
      "pad_fill_mode" : 0,
      "pad_b" : 1,
      "pad_l" : 1,
      "top" : "input.145",
      "K" : 128,
      "blob_biases" : 217,
      "name" : "input.145",
      "has_batch_norm" : 0,
      "type" : "convolution",
      "n_groups" : 1,
      "pad_t" : 1,
      "has_biases" : 1,
      "C" : 128,
      "bottom" : "input.143",
      "weights" : {
        "W_U8" : 219,
        "lut_to_float32" : 221
      },
      "Nx" : 3,
      "pad_mode" : 0,
      "pad_value" : 0,
      "Ny" : 3,
      "n_parallel" : 1
    },
    {
      "bottom" : "input.145",
      "weights" : {

      },
      "mode" : 3,
      "debug_info" : "473__silu_sigmoid__",
      "top" : "473__silu_sigmoid__",
      "type" : "activation",
      "name" : "473__silu_sigmoid__"
    },
    {
      "bottom" : "input.145,473__silu_sigmoid__",
      "alpha" : 1,
      "operation" : 1,
      "weights" : {

      },
      "fused_relu" : 0,
      "debug_info" : "473",
      "top" : "473",
      "type" : "elementwise",
      "name" : "473",
      "beta" : 0
    },
    {
      "pad_r" : 0,
      "fused_relu" : 0,
      "fused_tanh" : 0,
      "debug_info" : "input.147",
      "pad_fill_mode" : 0,
      "pad_b" : 0,
      "pad_l" : 0,
      "top" : "input.147",
      "K" : 512,
      "blob_biases" : 223,
      "name" : "input.147",
      "has_batch_norm" : 0,
      "type" : "convolution",
      "n_groups" : 1,
      "pad_t" : 0,
      "has_biases" : 1,
      "C" : 128,
      "bottom" : "input.135",
      "weights" : {
        "W_U8" : 225,
        "lut_to_float32" : 227
      },
      "Nx" : 1,
      "pad_mode" : 0,
      "pad_value" : 0,
      "Ny" : 1,
      "n_parallel" : 1
    },
    {
      "bottom" : "input.147",
      "weights" : {

      },
      "mode" : 3,
      "debug_info" : "482__silu_sigmoid__",
      "top" : "482__silu_sigmoid__",
      "type" : "activation",
      "name" : "482__silu_sigmoid__"
    },
    {
      "bottom" : "input.147,482__silu_sigmoid__",
      "alpha" : 1,
      "operation" : 1,
      "weights" : {

      },
      "fused_relu" : 0,
      "debug_info" : "482",
      "top" : "482",
      "type" : "elementwise",
      "name" : "482",
      "beta" : 0
    },
    {
      "weights" : {

      },
      "debug_info" : "input.149",
      "top" : "input.149",
      "type" : "concat",
      "name" : "input.149",
      "bottom" : "473,482"
    },
    {
      "pad_r" : 0,
      "fused_relu" : 0,
      "fused_tanh" : 0,
      "debug_info" : "input.151",
      "pad_fill_mode" : 0,
      "pad_b" : 0,
      "pad_l" : 0,
      "top" : "input.151",
      "K" : 256,
      "blob_biases" : 229,
      "name" : "input.151",
      "has_batch_norm" : 0,
      "type" : "convolution",
      "n_groups" : 1,
      "pad_t" : 0,
      "has_biases" : 1,
      "C" : 256,
      "bottom" : "input.149",
      "weights" : {
        "W_U8" : 231,
        "lut_to_float32" : 233
      },
      "Nx" : 1,
      "pad_mode" : 0,
      "pad_value" : 0,
      "Ny" : 1,
      "n_parallel" : 1
    },
    {
      "bottom" : "input.151",
      "weights" : {

      },
      "mode" : 3,
      "debug_info" : "input.153__silu_sigmoid__",
      "top" : "input.153__silu_sigmoid__",
      "type" : "activation",
      "name" : "input.153__silu_sigmoid__"
    },
    {
      "bottom" : "input.151,input.153__silu_sigmoid__",
      "alpha" : 1,
      "operation" : 1,
      "weights" : {

      },
      "fused_relu" : 0,
      "debug_info" : "input.153",
      "top" : "input.153",
      "type" : "elementwise",
      "name" : "input.153",
      "beta" : 0
    },
    {
      "pad_r" : 0,
      "fused_relu" : 0,
      "fused_tanh" : 0,
      "debug_info" : "input.155",
      "pad_fill_mode" : 0,
      "pad_b" : 0,
      "pad_l" : 0,
      "top" : "input.155",
      "K" : 256,
      "blob_biases" : 235,
      "name" : "input.155",
      "has_batch_norm" : 0,
      "type" : "convolution",
      "n_groups" : 1,
      "pad_t" : 0,
      "has_biases" : 1,
      "C" : 128,
      "bottom" : "input.153",
      "weights" : {
        "W_U8" : 237,
        "lut_to_float32" : 239
      },
      "Nx" : 1,
      "pad_mode" : 0,
      "pad_value" : 0,
      "Ny" : 1,
      "n_parallel" : 1
    },
    {
      "bottom" : "input.155",
      "weights" : {

      },
      "mode" : 3,
      "debug_info" : "input.157__silu_sigmoid__",
      "top" : "input.157__silu_sigmoid__",
      "type" : "activation",
      "name" : "input.157__silu_sigmoid__"
    },
    {
      "bottom" : "input.155,input.157__silu_sigmoid__",
      "alpha" : 1,
      "operation" : 1,
      "weights" : {

      },
      "fused_relu" : 0,
      "debug_info" : "input.157",
      "top" : "input.157",
      "type" : "elementwise",
      "name" : "input.157",
      "beta" : 0
    },
    {
      "top" : "504",
      "use_fractional_scale_factors" : false,
      "weights" : {

      },
      "fractional_scaling_factor_y" : 1,
      "type" : "upsample",
      "scaling_factor_x" : 2,
      "mode" : 0,
      "align_corners" : 0,
      "bottom" : "input.157",
      "debug_info" : "504",
      "fractional_scaling_factor_x" : 1,
      "is_legacy_mode" : 1,
      "name" : "504",
      "scaling_factor_y" : 2
    },
    {
      "weights" : {

      },
      "debug_info" : "input.159",
      "top" : "input.159",
      "type" : "concat",
      "name" : "input.159",
      "bottom" : "504,input.55"
    },
    {
      "pad_r" : 0,
      "fused_relu" : 0,
      "fused_tanh" : 0,
      "debug_info" : "input.161",
      "pad_fill_mode" : 0,
      "pad_b" : 0,
      "pad_l" : 0,
      "top" : "input.161",
      "K" : 256,
      "blob_biases" : 241,
      "name" : "input.161",
      "has_batch_norm" : 0,
      "type" : "convolution",
      "n_groups" : 1,
      "pad_t" : 0,
      "has_biases" : 1,
      "C" : 64,
      "bottom" : "input.159",
      "weights" : {
        "W_U8" : 243,
        "lut_to_float32" : 245
      },
      "Nx" : 1,
      "pad_mode" : 0,
      "pad_value" : 0,
      "Ny" : 1,
      "n_parallel" : 1
    },
    {
      "bottom" : "input.161",
      "weights" : {

      },
      "mode" : 3,
      "debug_info" : "input.163__silu_sigmoid__",
      "top" : "input.163__silu_sigmoid__",
      "type" : "activation",
      "name" : "input.163__silu_sigmoid__"
    },
    {
      "bottom" : "input.161,input.163__silu_sigmoid__",
      "alpha" : 1,
      "operation" : 1,
      "weights" : {

      },
      "fused_relu" : 0,
      "debug_info" : "input.163",
      "top" : "input.163",
      "type" : "elementwise",
      "name" : "input.163",
      "beta" : 0
    },
    {
      "pad_r" : 0,
      "fused_relu" : 0,
      "fused_tanh" : 0,
      "debug_info" : "input.165",
      "pad_fill_mode" : 0,
      "pad_b" : 0,
      "pad_l" : 0,
      "top" : "input.165",
      "K" : 64,
      "blob_biases" : 247,
      "name" : "input.165",
      "has_batch_norm" : 0,
      "type" : "convolution",
      "n_groups" : 1,
      "pad_t" : 0,
      "has_biases" : 1,
      "C" : 64,
      "bottom" : "input.163",
      "weights" : {
        "W_U8" : 249,
        "lut_to_float32" : 251
      },
      "Nx" : 1,
      "pad_mode" : 0,
      "pad_value" : 0,
      "Ny" : 1,
      "n_parallel" : 1
    },
    {
      "bottom" : "input.165",
      "weights" : {

      },
      "mode" : 3,
      "debug_info" : "input.167__silu_sigmoid__",
      "top" : "input.167__silu_sigmoid__",
      "type" : "activation",
      "name" : "input.167__silu_sigmoid__"
    },
    {
      "bottom" : "input.165,input.167__silu_sigmoid__",
      "alpha" : 1,
      "operation" : 1,
      "weights" : {

      },
      "fused_relu" : 0,
      "debug_info" : "input.167",
      "top" : "input.167",
      "type" : "elementwise",
      "name" : "input.167",
      "beta" : 0
    },
    {
      "pad_r" : 1,
      "fused_relu" : 0,
      "fused_tanh" : 0,
      "debug_info" : "input.169",
      "pad_fill_mode" : 0,
      "pad_b" : 1,
      "pad_l" : 1,
      "top" : "input.169",
      "K" : 64,
      "blob_biases" : 253,
      "name" : "input.169",
      "has_batch_norm" : 0,
      "type" : "convolution",
      "n_groups" : 1,
      "pad_t" : 1,
      "has_biases" : 1,
      "C" : 64,
      "bottom" : "input.167",
      "weights" : {
        "W_U8" : 255,
        "lut_to_float32" : 257
      },
      "Nx" : 3,
      "pad_mode" : 0,
      "pad_value" : 0,
      "Ny" : 3,
      "n_parallel" : 1
    },
    {
      "bottom" : "input.169",
      "weights" : {

      },
      "mode" : 3,
      "debug_info" : "540__silu_sigmoid__",
      "top" : "540__silu_sigmoid__",
      "type" : "activation",
      "name" : "540__silu_sigmoid__"
    },
    {
      "bottom" : "input.169,540__silu_sigmoid__",
      "alpha" : 1,
      "operation" : 1,
      "weights" : {

      },
      "fused_relu" : 0,
      "debug_info" : "540",
      "top" : "540",
      "type" : "elementwise",
      "name" : "540",
      "beta" : 0
    },
    {
      "pad_r" : 0,
      "fused_relu" : 0,
      "fused_tanh" : 0,
      "debug_info" : "input.171",
      "pad_fill_mode" : 0,
      "pad_b" : 0,
      "pad_l" : 0,
      "top" : "input.171",
      "K" : 256,
      "blob_biases" : 259,
      "name" : "input.171",
      "has_batch_norm" : 0,
      "type" : "convolution",
      "n_groups" : 1,
      "pad_t" : 0,
      "has_biases" : 1,
      "C" : 64,
      "bottom" : "input.159",
      "weights" : {
        "W_U8" : 261,
        "lut_to_float32" : 263
      },
      "Nx" : 1,
      "pad_mode" : 0,
      "pad_value" : 0,
      "Ny" : 1,
      "n_parallel" : 1
    },
    {
      "bottom" : "input.171",
      "weights" : {

      },
      "mode" : 3,
      "debug_info" : "549__silu_sigmoid__",
      "top" : "549__silu_sigmoid__",
      "type" : "activation",
      "name" : "549__silu_sigmoid__"
    },
    {
      "bottom" : "input.171,549__silu_sigmoid__",
      "alpha" : 1,
      "operation" : 1,
      "weights" : {

      },
      "fused_relu" : 0,
      "debug_info" : "549",
      "top" : "549",
      "type" : "elementwise",
      "name" : "549",
      "beta" : 0
    },
    {
      "weights" : {

      },
      "debug_info" : "input.173",
      "top" : "input.173",
      "type" : "concat",
      "name" : "input.173",
      "bottom" : "540,549"
    },
    {
      "pad_r" : 0,
      "fused_relu" : 0,
      "fused_tanh" : 0,
      "debug_info" : "input.175",
      "pad_fill_mode" : 0,
      "pad_b" : 0,
      "pad_l" : 0,
      "top" : "input.175",
      "K" : 128,
      "blob_biases" : 265,
      "name" : "input.175",
      "has_batch_norm" : 0,
      "type" : "convolution",
      "n_groups" : 1,
      "pad_t" : 0,
      "has_biases" : 1,
      "C" : 128,
      "bottom" : "input.173",
      "weights" : {
        "W_U8" : 267,
        "lut_to_float32" : 269
      },
      "Nx" : 1,
      "pad_mode" : 0,
      "pad_value" : 0,
      "Ny" : 1,
      "n_parallel" : 1
    },
    {
      "bottom" : "input.175",
      "weights" : {

      },
      "mode" : 3,
      "debug_info" : "input.177__silu_sigmoid__",
      "top" : "input.177__silu_sigmoid__",
      "type" : "activation",
      "name" : "input.177__silu_sigmoid__"
    },
    {
      "bottom" : "input.175,input.177__silu_sigmoid__",
      "alpha" : 1,
      "operation" : 1,
      "weights" : {

      },
      "fused_relu" : 0,
      "debug_info" : "input.177",
      "top" : "input.177",
      "type" : "elementwise",
      "name" : "input.177",
      "beta" : 0
    },
    {
      "pad_r" : 1,
      "fused_relu" : 0,
      "fused_tanh" : 0,
      "debug_info" : "input.179",
      "pad_fill_mode" : 0,
      "pad_b" : 1,
      "pad_l" : 1,
      "top" : "input.179",
      "K" : 128,
      "blob_biases" : 271,
      "stride_x" : 2,
      "name" : "input.179",
      "has_batch_norm" : 0,
      "type" : "convolution",
      "n_groups" : 1,
      "pad_t" : 1,
      "stride_y" : 2,
      "has_biases" : 1,
      "C" : 128,
      "bottom" : "input.177",
      "weights" : {
        "W_U8" : 273,
        "lut_to_float32" : 275
      },
      "Nx" : 3,
      "pad_mode" : 0,
      "pad_value" : 0,
      "Ny" : 3,
      "n_parallel" : 1
    },
    {
      "bottom" : "input.179",
      "weights" : {

      },
      "mode" : 3,
      "debug_info" : "569__silu_sigmoid__",
      "top" : "569__silu_sigmoid__",
      "type" : "activation",
      "name" : "569__silu_sigmoid__"
    },
    {
      "bottom" : "input.179,569__silu_sigmoid__",
      "alpha" : 1,
      "operation" : 1,
      "weights" : {

      },
      "fused_relu" : 0,
      "debug_info" : "569",
      "top" : "569",
      "type" : "elementwise",
      "name" : "569",
      "beta" : 0
    },
    {
      "weights" : {

      },
      "debug_info" : "input.181",
      "top" : "input.181",
      "type" : "concat",
      "name" : "input.181",
      "bottom" : "569,input.157"
    },
    {
      "pad_r" : 0,
      "fused_relu" : 0,
      "fused_tanh" : 0,
      "debug_info" : "input.183",
      "pad_fill_mode" : 0,
      "pad_b" : 0,
      "pad_l" : 0,
      "top" : "input.183",
      "K" : 256,
      "blob_biases" : 277,
      "name" : "input.183",
      "has_batch_norm" : 0,
      "type" : "convolution",
      "n_groups" : 1,
      "pad_t" : 0,
      "has_biases" : 1,
      "C" : 128,
      "bottom" : "input.181",
      "weights" : {
        "W_U8" : 279,
        "lut_to_float32" : 281
      },
      "Nx" : 1,
      "pad_mode" : 0,
      "pad_value" : 0,
      "Ny" : 1,
      "n_parallel" : 1
    },
    {
      "bottom" : "input.183",
      "weights" : {

      },
      "mode" : 3,
      "debug_info" : "input.185__silu_sigmoid__",
      "top" : "input.185__silu_sigmoid__",
      "type" : "activation",
      "name" : "input.185__silu_sigmoid__"
    },
    {
      "bottom" : "input.183,input.185__silu_sigmoid__",
      "alpha" : 1,
      "operation" : 1,
      "weights" : {

      },
      "fused_relu" : 0,
      "debug_info" : "input.185",
      "top" : "input.185",
      "type" : "elementwise",
      "name" : "input.185",
      "beta" : 0
    },
    {
      "pad_r" : 0,
      "fused_relu" : 0,
      "fused_tanh" : 0,
      "debug_info" : "input.187",
      "pad_fill_mode" : 0,
      "pad_b" : 0,
      "pad_l" : 0,
      "top" : "input.187",
      "K" : 128,
      "blob_biases" : 283,
      "name" : "input.187",
      "has_batch_norm" : 0,
      "type" : "convolution",
      "n_groups" : 1,
      "pad_t" : 0,
      "has_biases" : 1,
      "C" : 128,
      "bottom" : "input.185",
      "weights" : {
        "W_U8" : 285,
        "lut_to_float32" : 287
      },
      "Nx" : 1,
      "pad_mode" : 0,
      "pad_value" : 0,
      "Ny" : 1,
      "n_parallel" : 1
    },
    {
      "bottom" : "input.187",
      "weights" : {

      },
      "mode" : 3,
      "debug_info" : "input.189__silu_sigmoid__",
      "top" : "input.189__silu_sigmoid__",
      "type" : "activation",
      "name" : "input.189__silu_sigmoid__"
    },
    {
      "bottom" : "input.187,input.189__silu_sigmoid__",
      "alpha" : 1,
      "operation" : 1,
      "weights" : {

      },
      "fused_relu" : 0,
      "debug_info" : "input.189",
      "top" : "input.189",
      "type" : "elementwise",
      "name" : "input.189",
      "beta" : 0
    },
    {
      "pad_r" : 1,
      "fused_relu" : 0,
      "fused_tanh" : 0,
      "debug_info" : "input.191",
      "pad_fill_mode" : 0,
      "pad_b" : 1,
      "pad_l" : 1,
      "top" : "input.191",
      "K" : 128,
      "blob_biases" : 289,
      "name" : "input.191",
      "has_batch_norm" : 0,
      "type" : "convolution",
      "n_groups" : 1,
      "pad_t" : 1,
      "has_biases" : 1,
      "C" : 128,
      "bottom" : "input.189",
      "weights" : {
        "W_U8" : 291,
        "lut_to_float32" : 293
      },
      "Nx" : 3,
      "pad_mode" : 0,
      "pad_value" : 0,
      "Ny" : 3,
      "n_parallel" : 1
    },
    {
      "bottom" : "input.191",
      "weights" : {

      },
      "mode" : 3,
      "debug_info" : "605__silu_sigmoid__",
      "top" : "605__silu_sigmoid__",
      "type" : "activation",
      "name" : "605__silu_sigmoid__"
    },
    {
      "bottom" : "input.191,605__silu_sigmoid__",
      "alpha" : 1,
      "operation" : 1,
      "weights" : {

      },
      "fused_relu" : 0,
      "debug_info" : "605",
      "top" : "605",
      "type" : "elementwise",
      "name" : "605",
      "beta" : 0
    },
    {
      "pad_r" : 0,
      "fused_relu" : 0,
      "fused_tanh" : 0,
      "debug_info" : "input.193",
      "pad_fill_mode" : 0,
      "pad_b" : 0,
      "pad_l" : 0,
      "top" : "input.193",
      "K" : 256,
      "blob_biases" : 295,
      "name" : "input.193",
      "has_batch_norm" : 0,
      "type" : "convolution",
      "n_groups" : 1,
      "pad_t" : 0,
      "has_biases" : 1,
      "C" : 128,
      "bottom" : "input.181",
      "weights" : {
        "W_U8" : 297,
        "lut_to_float32" : 299
      },
      "Nx" : 1,
      "pad_mode" : 0,
      "pad_value" : 0,
      "Ny" : 1,
      "n_parallel" : 1
    },
    {
      "bottom" : "input.193",
      "weights" : {

      },
      "mode" : 3,
      "debug_info" : "614__silu_sigmoid__",
      "top" : "614__silu_sigmoid__",
      "type" : "activation",
      "name" : "614__silu_sigmoid__"
    },
    {
      "bottom" : "input.193,614__silu_sigmoid__",
      "alpha" : 1,
      "operation" : 1,
      "weights" : {

      },
      "fused_relu" : 0,
      "debug_info" : "614",
      "top" : "614",
      "type" : "elementwise",
      "name" : "614",
      "beta" : 0
    },
    {
      "weights" : {

      },
      "debug_info" : "input.195",
      "top" : "input.195",
      "type" : "concat",
      "name" : "input.195",
      "bottom" : "605,614"
    },
    {
      "pad_r" : 0,
      "fused_relu" : 0,
      "fused_tanh" : 0,
      "debug_info" : "input.197",
      "pad_fill_mode" : 0,
      "pad_b" : 0,
      "pad_l" : 0,
      "top" : "input.197",
      "K" : 256,
      "blob_biases" : 301,
      "name" : "input.197",
      "has_batch_norm" : 0,
      "type" : "convolution",
      "n_groups" : 1,
      "pad_t" : 0,
      "has_biases" : 1,
      "C" : 256,
      "bottom" : "input.195",
      "weights" : {
        "W_U8" : 303,
        "lut_to_float32" : 305
      },
      "Nx" : 1,
      "pad_mode" : 0,
      "pad_value" : 0,
      "Ny" : 1,
      "n_parallel" : 1
    },
    {
      "bottom" : "input.197",
      "weights" : {

      },
      "mode" : 3,
      "debug_info" : "input.199__silu_sigmoid__",
      "top" : "input.199__silu_sigmoid__",
      "type" : "activation",
      "name" : "input.199__silu_sigmoid__"
    },
    {
      "bottom" : "input.197,input.199__silu_sigmoid__",
      "alpha" : 1,
      "operation" : 1,
      "weights" : {

      },
      "fused_relu" : 0,
      "debug_info" : "input.199",
      "top" : "input.199",
      "type" : "elementwise",
      "name" : "input.199",
      "beta" : 0
    },
    {
      "pad_r" : 1,
      "fused_relu" : 0,
      "fused_tanh" : 0,
      "debug_info" : "input.201",
      "pad_fill_mode" : 0,
      "pad_b" : 1,
      "pad_l" : 1,
      "top" : "input.201",
      "K" : 256,
      "blob_biases" : 307,
      "stride_x" : 2,
      "name" : "input.201",
      "has_batch_norm" : 0,
      "type" : "convolution",
      "n_groups" : 1,
      "pad_t" : 1,
      "stride_y" : 2,
      "has_biases" : 1,
      "C" : 256,
      "bottom" : "input.199",
      "weights" : {
        "W_U8" : 309,
        "lut_to_float32" : 311
      },
      "Nx" : 3,
      "pad_mode" : 0,
      "pad_value" : 0,
      "Ny" : 3,
      "n_parallel" : 1
    },
    {
      "bottom" : "input.201",
      "weights" : {

      },
      "mode" : 3,
      "debug_info" : "634__silu_sigmoid__",
      "top" : "634__silu_sigmoid__",
      "type" : "activation",
      "name" : "634__silu_sigmoid__"
    },
    {
      "bottom" : "input.201,634__silu_sigmoid__",
      "alpha" : 1,
      "operation" : 1,
      "weights" : {

      },
      "fused_relu" : 0,
      "debug_info" : "634",
      "top" : "634",
      "type" : "elementwise",
      "name" : "634",
      "beta" : 0
    },
    {
      "weights" : {

      },
      "debug_info" : "input.203",
      "top" : "input.203",
      "type" : "concat",
      "name" : "input.203",
      "bottom" : "634,input.133"
    },
    {
      "pad_r" : 0,
      "fused_relu" : 0,
      "fused_tanh" : 0,
      "debug_info" : "input.205",
      "pad_fill_mode" : 0,
      "pad_b" : 0,
      "pad_l" : 0,
      "top" : "input.205",
      "K" : 512,
      "blob_biases" : 313,
      "name" : "input.205",
      "has_batch_norm" : 0,
      "type" : "convolution",
      "n_groups" : 1,
      "pad_t" : 0,
      "has_biases" : 1,
      "C" : 256,
      "bottom" : "input.203",
      "weights" : {
        "W_U8" : 315,
        "lut_to_float32" : 317
      },
      "Nx" : 1,
      "pad_mode" : 0,
      "pad_value" : 0,
      "Ny" : 1,
      "n_parallel" : 1
    },
    {
      "bottom" : "input.205",
      "weights" : {

      },
      "mode" : 3,
      "debug_info" : "input.207__silu_sigmoid__",
      "top" : "input.207__silu_sigmoid__",
      "type" : "activation",
      "name" : "input.207__silu_sigmoid__"
    },
    {
      "bottom" : "input.205,input.207__silu_sigmoid__",
      "alpha" : 1,
      "operation" : 1,
      "weights" : {

      },
      "fused_relu" : 0,
      "debug_info" : "input.207",
      "top" : "input.207",
      "type" : "elementwise",
      "name" : "input.207",
      "beta" : 0
    },
    {
      "pad_r" : 0,
      "fused_relu" : 0,
      "fused_tanh" : 0,
      "debug_info" : "input.209",
      "pad_fill_mode" : 0,
      "pad_b" : 0,
      "pad_l" : 0,
      "top" : "input.209",
      "K" : 256,
      "blob_biases" : 319,
      "name" : "input.209",
      "has_batch_norm" : 0,
      "type" : "convolution",
      "n_groups" : 1,
      "pad_t" : 0,
      "has_biases" : 1,
      "C" : 256,
      "bottom" : "input.207",
      "weights" : {
        "W_U8" : 321,
        "lut_to_float32" : 323
      },
      "Nx" : 1,
      "pad_mode" : 0,
      "pad_value" : 0,
      "Ny" : 1,
      "n_parallel" : 1
    },
    {
      "bottom" : "input.209",
      "weights" : {

      },
      "mode" : 3,
      "debug_info" : "input.211__silu_sigmoid__",
      "top" : "input.211__silu_sigmoid__",
      "type" : "activation",
      "name" : "input.211__silu_sigmoid__"
    },
    {
      "bottom" : "input.209,input.211__silu_sigmoid__",
      "alpha" : 1,
      "operation" : 1,
      "weights" : {

      },
      "fused_relu" : 0,
      "debug_info" : "input.211",
      "top" : "input.211",
      "type" : "elementwise",
      "name" : "input.211",
      "beta" : 0
    },
    {
      "pad_r" : 1,
      "fused_relu" : 0,
      "fused_tanh" : 0,
      "debug_info" : "input.213",
      "pad_fill_mode" : 0,
      "pad_b" : 1,
      "pad_l" : 1,
      "top" : "input.213",
      "K" : 256,
      "blob_biases" : 325,
      "name" : "input.213",
      "has_batch_norm" : 0,
      "type" : "convolution",
      "n_groups" : 1,
      "pad_t" : 1,
      "has_biases" : 1,
      "C" : 256,
      "bottom" : "input.211",
      "weights" : {
        "W_U8" : 327,
        "lut_to_float32" : 329
      },
      "Nx" : 3,
      "pad_mode" : 0,
      "pad_value" : 0,
      "Ny" : 3,
      "n_parallel" : 1
    },
    {
      "bottom" : "input.213",
      "weights" : {

      },
      "mode" : 3,
      "debug_info" : "670__silu_sigmoid__",
      "top" : "670__silu_sigmoid__",
      "type" : "activation",
      "name" : "670__silu_sigmoid__"
    },
    {
      "bottom" : "input.213,670__silu_sigmoid__",
      "alpha" : 1,
      "operation" : 1,
      "weights" : {

      },
      "fused_relu" : 0,
      "debug_info" : "670",
      "top" : "670",
      "type" : "elementwise",
      "name" : "670",
      "beta" : 0
    },
    {
      "pad_r" : 0,
      "fused_relu" : 0,
      "fused_tanh" : 0,
      "debug_info" : "input.215",
      "pad_fill_mode" : 0,
      "pad_b" : 0,
      "pad_l" : 0,
      "top" : "input.215",
      "K" : 512,
      "blob_biases" : 331,
      "name" : "input.215",
      "has_batch_norm" : 0,
      "type" : "convolution",
      "n_groups" : 1,
      "pad_t" : 0,
      "has_biases" : 1,
      "C" : 256,
      "bottom" : "input.203",
      "weights" : {
        "W_U8" : 333,
        "lut_to_float32" : 335
      },
      "Nx" : 1,
      "pad_mode" : 0,
      "pad_value" : 0,
      "Ny" : 1,
      "n_parallel" : 1
    },
    {
      "bottom" : "input.215",
      "weights" : {

      },
      "mode" : 3,
      "debug_info" : "679__silu_sigmoid__",
      "top" : "679__silu_sigmoid__",
      "type" : "activation",
      "name" : "679__silu_sigmoid__"
    },
    {
      "bottom" : "input.215,679__silu_sigmoid__",
      "alpha" : 1,
      "operation" : 1,
      "weights" : {

      },
      "fused_relu" : 0,
      "debug_info" : "679",
      "top" : "679",
      "type" : "elementwise",
      "name" : "679",
      "beta" : 0
    },
    {
      "weights" : {

      },
      "debug_info" : "input.217",
      "top" : "input.217",
      "type" : "concat",
      "name" : "input.217",
      "bottom" : "670,679"
    },
    {
      "pad_r" : 0,
      "fused_relu" : 0,
      "fused_tanh" : 0,
      "debug_info" : "input.219",
      "pad_fill_mode" : 0,
      "pad_b" : 0,
      "pad_l" : 0,
      "top" : "input.219",
      "K" : 512,
      "blob_biases" : 337,
      "name" : "input.219",
      "has_batch_norm" : 0,
      "type" : "convolution",
      "n_groups" : 1,
      "pad_t" : 0,
      "has_biases" : 1,
      "C" : 512,
      "bottom" : "input.217",
      "weights" : {
        "W_U8" : 339,
        "lut_to_float32" : 341
      },
      "Nx" : 1,
      "pad_mode" : 0,
      "pad_value" : 0,
      "Ny" : 1,
      "n_parallel" : 1
    },
    {
      "bottom" : "input.219",
      "weights" : {

      },
      "mode" : 3,
      "debug_info" : "input__silu_sigmoid__",
      "top" : "input__silu_sigmoid__",
      "type" : "activation",
      "name" : "input__silu_sigmoid__"
    },
    {
      "bottom" : "input.219,input__silu_sigmoid__",
      "alpha" : 1,
      "operation" : 1,
      "weights" : {

      },
      "fused_relu" : 0,
      "debug_info" : "input",
      "top" : "input",
      "type" : "elementwise",
      "name" : "input",
      "beta" : 0
    },
    {
      "pad_r" : 0,
      "fused_relu" : 0,
      "fused_tanh" : 0,
      "debug_info" : "703",
      "pad_fill_mode" : 0,
      "pad_b" : 0,
      "pad_l" : 0,
      "top" : "703",
      "K" : 128,
      "blob_biases" : 343,
      "name" : "703",
      "has_batch_norm" : 0,
      "type" : "convolution",
      "n_groups" : 1,
      "pad_t" : 0,
      "has_biases" : 1,
      "C" : 18,
      "bottom" : "input.177",
      "weights" : {
        "W_U8" : 345,
        "lut_to_float32" : 347
      },
      "Nx" : 1,
      "pad_mode" : 0,
      "pad_value" : 0,
      "Ny" : 1,
      "n_parallel" : 1
    },
    {
      "name" : "710",
      "weights" : {

      },
      "dst_w" : 80,
      "version" : 1,
      "dst_n" : 3,
      "dst_nd_rank" : 5,
      "type" : "reshape",
      "dst_h" : 80,
      "mode" : 0,
      "dynamic_shape" : false,
      "bottom" : "703",
      "debug_info" : "710",
      "dst_seq" : 1,
      "dst_k" : 6,
      "top" : "710"
    },
    {
      "axis_h" : 0,
      "axis_w" : 2,
      "bottom" : "710",
      "axis_k" : 1,
      "axis_n" : 3,
      "axis_seq" : 4,
      "weights" : {

      },
      "debug_info" : "transpose_2",
      "top" : "transpose_2",
      "type" : "transpose",
      "name" : "transpose_2"
    },
    {
      "bottom" : "transpose_2",
      "weights" : {

      },
      "mode" : 3,
      "debug_info" : "714",
      "top" : "714",
      "type" : "activation",
      "name" : "714"
    },
    {
      "begin_104" : 0,
      "begin_63" : 0,
      "begin_59" : 0,
      "begin_64" : 0,
      "begin_105" : 0,
      "begin_65" : 0,
      "begin_0" : 0,
      "begin_70" : 0,
      "begin_66" : 0,
      "begin_106" : 0,
      "begin_110" : 0,
      "begin_2" : 0,
      "begin_71" : 0,
      "begin_67" : 0,
      "begin_68" : 0,
      "begin_107" : 0,
      "begin_111" : 0,
      "begin_4" : 0,
      "begin_72" : 0,
      "begin_73" : 0,
      "begin_69" : 0,
      "begin_6" : 0,
      "begin_74" : 0,
      "begin_108" : 0,
      "type" : "split_nd",
      "begin_8" : 0,
      "begin_112" : 0,
      "begin_75" : 0,
      "begin_10" : 0,
      "begin_80" : 0,
      "begin_76" : 0,
      "begin_109" : 0,
      "begin_113" : 0,
      "begin_11" : 0,
      "nd_axis" : 4,
      "begin_81" : 0,
      "begin_77" : 0,
      "begin_114" : 0,
      "begin_12" : 0,
      "begin_78" : 0,
      "begin_82" : 0,
      "begin_13" : 0,
      "begin_83" : 0,
      "begin_79" : 0,
      "begin_115" : 0,
      "begin_14" : 0,
      "begin_84" : 0,
      "begin_15" : 0,
      "begin_85" : 0,
      "num_splits" : 3,
      "begin_116" : 0,
      "begin_120" : 0,
      "begin_20" : 0,
      "begin_86" : 0,
      "begin_16" : 0,
      "begin_90" : 0,
      "begin_21" : 0,
      "begin_91" : 0,
      "begin_87" : 0,
      "begin_17" : 0,
      "begin_117" : 0,
      "begin_121" : 0,
      "begin_18" : 0,
      "begin_92" : 0,
      "begin_88" : 0,
      "begin_22" : 0,
      "begin_23" : 0,
      "begin_89" : 0,
      "begin_19" : 0,
      "begin_93" : 0,
      "begin_118" : 0,
      "begin_122" : 0,
      "begin_24" : 0,
      "begin_94" : 0,
      "begin_25" : 0,
      "begin_95" : 0,
      "begin_119" : 0,
      "begin_123" : 0,
      "begin_30" : 0,
      "begin_26" : 0,
      "begin_96" : 0,
      "begin_124" : 0,
      "begin_31" : 0,
      "begin_97" : 0,
      "begin_27" : 0,
      "begin_28" : 0,
      "begin_98" : 0,
      "begin_32" : 0,
      "begin_125" : 0,
      "begin_33" : 0,
      "begin_29" : 0,
      "begin_99" : 0,
      "begin_1" : 0,
      "weights" : {

      },
      "begin_34" : 0,
      "bottom" : "714",
      "begin_3" : 0,
      "begin_126" : 0,
      "begin_35" : 0,
      "begin_5" : 0,
      "begin_36" : 0,
      "begin_40" : 0,
      "begin_127" : 0,
      "name" : "716",
      "begin_41" : 0,
      "begin_37" : 0,
      "begin_7" : 0,
      "begin_42" : 0,
      "begin_38" : 0,
      "begin_9" : 0,
      "begin_39" : 0,
      "begin_43" : 0,
      "begin_44" : 0,
      "begin_45" : 0,
      "begin_50" : 0,
      "begin_46" : 0,
      "begin_51" : 0,
      "begin_47" : 0,
      "begin_100" : 0,
      "begin_52" : 0,
      "debug_info" : "716",
      "begin_48" : 0,
      "top" : "716_0,716_1,716_2",
      "begin_101" : 0,
      "begin_53" : 0,
      "begin_49" : 0,
      "begin_54" : 0,
      "begin_55" : 0,
      "begin_102" : 0,
      "begin_60" : 0,
      "begin_56" : 0,
      "begin_103" : 0,
      "begin_57" : 0,
      "begin_61" : 0,
      "begin_62" : 0,
      "begin_58" : 0
    },
    {
      "bottom" : "716_0",
      "alpha" : 2,
      "operation" : 1,
      "weights" : {

      },
      "fused_relu" : 0,
      "debug_info" : "721",
      "top" : "721",
      "type" : "elementwise",
      "name" : "721",
      "beta" : 0
    },
    {
      "top" : "6",
      "w" : 2,
      "h" : 80,
      "name" : "6",
      "nd_rank" : 5,
      "type" : "load_constant",
      "k" : 80,
      "bottom" : "",
      "debug_info" : "6",
      "n" : 3,
      "weights" : {

      },
      "constant_blob" : 349
    },
    {
      "bottom" : "721,6",
      "alpha" : 1,
      "operation" : 0,
      "weights" : {

      },
      "fused_relu" : 0,
      "debug_info" : "722",
      "top" : "722",
      "type" : "elementwise",
      "name" : "722",
      "beta" : 0
    },
    {
      "bottom" : "722",
      "alpha" : 8,
      "operation" : 1,
      "weights" : {

      },
      "fused_relu" : 0,
      "debug_info" : "xy.3",
      "top" : "xy.3",
      "type" : "elementwise",
      "name" : "xy.3",
      "beta" : 0
    },
    {
      "bottom" : "716_1",
      "alpha" : 2,
      "operation" : 1,
      "weights" : {

      },
      "fused_relu" : 0,
      "debug_info" : "726",
      "top" : "726",
      "type" : "elementwise",
      "name" : "726",
      "beta" : 0
    },
    {
      "bottom" : "726",
      "alpha" : 2,
      "operation" : 13,
      "weights" : {

      },
      "fused_relu" : 0,
      "debug_info" : "727",
      "top" : "727",
      "type" : "elementwise",
      "name" : "727",
      "beta" : 0
    },
    {
      "top" : "8",
      "w" : 2,
      "h" : 80,
      "name" : "8",
      "nd_rank" : 5,
      "type" : "load_constant",
      "k" : 80,
      "bottom" : "",
      "debug_info" : "8",
      "n" : 3,
      "weights" : {

      },
      "constant_blob" : 351
    },
    {
      "bottom" : "727,8",
      "alpha" : 1,
      "operation" : 1,
      "weights" : {

      },
      "fused_relu" : 0,
      "debug_info" : "wh.3",
      "top" : "wh.3",
      "type" : "elementwise",
      "name" : "wh.3",
      "beta" : 0
    },
    {
      "bottom" : "xy.3,wh.3,716_2",
      "weights" : {

      },
      "nd_mode" : true,
      "axis" : 4,
      "debug_info" : "y.1",
      "top" : "y.1",
      "type" : "general_concat",
      "name" : "y.1"
    },
    {
      "name" : "736",
      "weights" : {

      },
      "dst_w" : 6,
      "version" : 1,
      "dst_n" : 1,
      "dst_nd_rank" : 3,
      "type" : "reshape",
      "dst_h" : 19200,
      "mode" : 0,
      "dynamic_shape" : false,
      "bottom" : "y.1",
      "debug_info" : "736",
      "dst_seq" : 1,
      "dst_k" : 1,
      "top" : "736"
    },
    {
      "pad_r" : 0,
      "fused_relu" : 0,
      "fused_tanh" : 0,
      "debug_info" : "743",
      "pad_fill_mode" : 0,
      "pad_b" : 0,
      "pad_l" : 0,
      "top" : "743",
      "K" : 256,
      "blob_biases" : 353,
      "name" : "743",
      "has_batch_norm" : 0,
      "type" : "convolution",
      "n_groups" : 1,
      "pad_t" : 0,
      "has_biases" : 1,
      "C" : 18,
      "bottom" : "input.199",
      "weights" : {
        "W_U8" : 355,
        "lut_to_float32" : 357
      },
      "Nx" : 1,
      "pad_mode" : 0,
      "pad_value" : 0,
      "Ny" : 1,
      "n_parallel" : 1
    },
    {
      "name" : "750",
      "weights" : {

      },
      "dst_w" : 40,
      "version" : 1,
      "dst_n" : 3,
      "dst_nd_rank" : 5,
      "type" : "reshape",
      "dst_h" : 40,
      "mode" : 0,
      "dynamic_shape" : false,
      "bottom" : "743",
      "debug_info" : "750",
      "dst_seq" : 1,
      "dst_k" : 6,
      "top" : "750"
    },
    {
      "axis_h" : 0,
      "axis_w" : 2,
      "bottom" : "750",
      "axis_k" : 1,
      "axis_n" : 3,
      "axis_seq" : 4,
      "weights" : {

      },
      "debug_info" : "transpose_1",
      "top" : "transpose_1",
      "type" : "transpose",
      "name" : "transpose_1"
    },
    {
      "bottom" : "transpose_1",
      "weights" : {

      },
      "mode" : 3,
      "debug_info" : "754",
      "top" : "754",
      "type" : "activation",
      "name" : "754"
    },
    {
      "begin_104" : 0,
      "begin_63" : 0,
      "begin_59" : 0,
      "begin_64" : 0,
      "begin_105" : 0,
      "begin_65" : 0,
      "begin_0" : 0,
      "begin_70" : 0,
      "begin_66" : 0,
      "begin_106" : 0,
      "begin_110" : 0,
      "begin_2" : 0,
      "begin_71" : 0,
      "begin_67" : 0,
      "begin_68" : 0,
      "begin_107" : 0,
      "begin_111" : 0,
      "begin_4" : 0,
      "begin_72" : 0,
      "begin_73" : 0,
      "begin_69" : 0,
      "begin_6" : 0,
      "begin_74" : 0,
      "begin_108" : 0,
      "type" : "split_nd",
      "begin_8" : 0,
      "begin_112" : 0,
      "begin_75" : 0,
      "begin_10" : 0,
      "begin_80" : 0,
      "begin_76" : 0,
      "begin_109" : 0,
      "begin_113" : 0,
      "begin_11" : 0,
      "nd_axis" : 4,
      "begin_81" : 0,
      "begin_77" : 0,
      "begin_114" : 0,
      "begin_12" : 0,
      "begin_78" : 0,
      "begin_82" : 0,
      "begin_13" : 0,
      "begin_83" : 0,
      "begin_79" : 0,
      "begin_115" : 0,
      "begin_14" : 0,
      "begin_84" : 0,
      "begin_15" : 0,
      "begin_85" : 0,
      "num_splits" : 3,
      "begin_116" : 0,
      "begin_120" : 0,
      "begin_20" : 0,
      "begin_86" : 0,
      "begin_16" : 0,
      "begin_90" : 0,
      "begin_21" : 0,
      "begin_91" : 0,
      "begin_87" : 0,
      "begin_17" : 0,
      "begin_117" : 0,
      "begin_121" : 0,
      "begin_18" : 0,
      "begin_92" : 0,
      "begin_88" : 0,
      "begin_22" : 0,
      "begin_23" : 0,
      "begin_89" : 0,
      "begin_19" : 0,
      "begin_93" : 0,
      "begin_118" : 0,
      "begin_122" : 0,
      "begin_24" : 0,
      "begin_94" : 0,
      "begin_25" : 0,
      "begin_95" : 0,
      "begin_119" : 0,
      "begin_123" : 0,
      "begin_30" : 0,
      "begin_26" : 0,
      "begin_96" : 0,
      "begin_124" : 0,
      "begin_31" : 0,
      "begin_97" : 0,
      "begin_27" : 0,
      "begin_28" : 0,
      "begin_98" : 0,
      "begin_32" : 0,
      "begin_125" : 0,
      "begin_33" : 0,
      "begin_29" : 0,
      "begin_99" : 0,
      "begin_1" : 0,
      "weights" : {

      },
      "begin_34" : 0,
      "bottom" : "754",
      "begin_3" : 0,
      "begin_126" : 0,
      "begin_35" : 0,
      "begin_5" : 0,
      "begin_36" : 0,
      "begin_40" : 0,
      "begin_127" : 0,
      "name" : "756",
      "begin_41" : 0,
      "begin_37" : 0,
      "begin_7" : 0,
      "begin_42" : 0,
      "begin_38" : 0,
      "begin_9" : 0,
      "begin_39" : 0,
      "begin_43" : 0,
      "begin_44" : 0,
      "begin_45" : 0,
      "begin_50" : 0,
      "begin_46" : 0,
      "begin_51" : 0,
      "begin_47" : 0,
      "begin_100" : 0,
      "begin_52" : 0,
      "debug_info" : "756",
      "begin_48" : 0,
      "top" : "756_0,756_1,756_2",
      "begin_101" : 0,
      "begin_53" : 0,
      "begin_49" : 0,
      "begin_54" : 0,
      "begin_55" : 0,
      "begin_102" : 0,
      "begin_60" : 0,
      "begin_56" : 0,
      "begin_103" : 0,
      "begin_57" : 0,
      "begin_61" : 0,
      "begin_62" : 0,
      "begin_58" : 0
    },
    {
      "bottom" : "756_0",
      "alpha" : 2,
      "operation" : 1,
      "weights" : {

      },
      "fused_relu" : 0,
      "debug_info" : "761",
      "top" : "761",
      "type" : "elementwise",
      "name" : "761",
      "beta" : 0
    },
    {
      "top" : "9",
      "w" : 2,
      "h" : 40,
      "name" : "9",
      "nd_rank" : 5,
      "type" : "load_constant",
      "k" : 40,
      "bottom" : "",
      "debug_info" : "9",
      "n" : 3,
      "weights" : {

      },
      "constant_blob" : 359
    },
    {
      "bottom" : "761,9",
      "alpha" : 1,
      "operation" : 0,
      "weights" : {

      },
      "fused_relu" : 0,
      "debug_info" : "762",
      "top" : "762",
      "type" : "elementwise",
      "name" : "762",
      "beta" : 0
    },
    {
      "bottom" : "762",
      "alpha" : 16,
      "operation" : 1,
      "weights" : {

      },
      "fused_relu" : 0,
      "debug_info" : "xy.7",
      "top" : "xy.7",
      "type" : "elementwise",
      "name" : "xy.7",
      "beta" : 0
    },
    {
      "bottom" : "756_1",
      "alpha" : 2,
      "operation" : 1,
      "weights" : {

      },
      "fused_relu" : 0,
      "debug_info" : "766",
      "top" : "766",
      "type" : "elementwise",
      "name" : "766",
      "beta" : 0
    },
    {
      "bottom" : "766",
      "alpha" : 2,
      "operation" : 13,
      "weights" : {

      },
      "fused_relu" : 0,
      "debug_info" : "767",
      "top" : "767",
      "type" : "elementwise",
      "name" : "767",
      "beta" : 0
    },
    {
      "top" : "10",
      "w" : 2,
      "h" : 40,
      "name" : "10",
      "nd_rank" : 5,
      "type" : "load_constant",
      "k" : 40,
      "bottom" : "",
      "debug_info" : "10",
      "n" : 3,
      "weights" : {

      },
      "constant_blob" : 361
    },
    {
      "bottom" : "767,10",
      "alpha" : 1,
      "operation" : 1,
      "weights" : {

      },
      "fused_relu" : 0,
      "debug_info" : "wh.7",
      "top" : "wh.7",
      "type" : "elementwise",
      "name" : "wh.7",
      "beta" : 0
    },
    {
      "bottom" : "xy.7,wh.7,756_2",
      "weights" : {

      },
      "nd_mode" : true,
      "axis" : 4,
      "debug_info" : "y.3",
      "top" : "y.3",
      "type" : "general_concat",
      "name" : "y.3"
    },
    {
      "name" : "776",
      "weights" : {

      },
      "dst_w" : 6,
      "version" : 1,
      "dst_n" : 1,
      "dst_nd_rank" : 3,
      "type" : "reshape",
      "dst_h" : 4800,
      "mode" : 0,
      "dynamic_shape" : false,
      "bottom" : "y.3",
      "debug_info" : "776",
      "dst_seq" : 1,
      "dst_k" : 1,
      "top" : "776"
    },
    {
      "pad_r" : 0,
      "fused_relu" : 0,
      "fused_tanh" : 0,
      "debug_info" : "783",
      "pad_fill_mode" : 0,
      "pad_b" : 0,
      "pad_l" : 0,
      "top" : "783",
      "K" : 512,
      "blob_biases" : 363,
      "name" : "783",
      "has_batch_norm" : 0,
      "type" : "convolution",
      "n_groups" : 1,
      "pad_t" : 0,
      "has_biases" : 1,
      "C" : 18,
      "bottom" : "input",
      "weights" : {
        "W_U8" : 365,
        "lut_to_float32" : 367
      },
      "Nx" : 1,
      "pad_mode" : 0,
      "pad_value" : 0,
      "Ny" : 1,
      "n_parallel" : 1
    },
    {
      "name" : "790",
      "weights" : {

      },
      "dst_w" : 20,
      "version" : 1,
      "dst_n" : 3,
      "dst_nd_rank" : 5,
      "type" : "reshape",
      "dst_h" : 20,
      "mode" : 0,
      "dynamic_shape" : false,
      "bottom" : "783",
      "debug_info" : "790",
      "dst_seq" : 1,
      "dst_k" : 6,
      "top" : "790"
    },
    {
      "axis_h" : 0,
      "axis_w" : 2,
      "bottom" : "790",
      "axis_k" : 1,
      "axis_n" : 3,
      "axis_seq" : 4,
      "weights" : {

      },
      "debug_info" : "transpose_0",
      "top" : "transpose_0",
      "type" : "transpose",
      "name" : "transpose_0"
    },
    {
      "bottom" : "transpose_0",
      "weights" : {

      },
      "mode" : 3,
      "debug_info" : "794",
      "top" : "794",
      "type" : "activation",
      "name" : "794"
    },
    {
      "begin_104" : 0,
      "begin_63" : 0,
      "begin_59" : 0,
      "begin_64" : 0,
      "begin_105" : 0,
      "begin_65" : 0,
      "begin_0" : 0,
      "begin_70" : 0,
      "begin_66" : 0,
      "begin_106" : 0,
      "begin_110" : 0,
      "begin_2" : 0,
      "begin_71" : 0,
      "begin_67" : 0,
      "begin_68" : 0,
      "begin_107" : 0,
      "begin_111" : 0,
      "begin_4" : 0,
      "begin_72" : 0,
      "begin_73" : 0,
      "begin_69" : 0,
      "begin_6" : 0,
      "begin_74" : 0,
      "begin_108" : 0,
      "type" : "split_nd",
      "begin_8" : 0,
      "begin_112" : 0,
      "begin_75" : 0,
      "begin_10" : 0,
      "begin_80" : 0,
      "begin_76" : 0,
      "begin_109" : 0,
      "begin_113" : 0,
      "begin_11" : 0,
      "nd_axis" : 4,
      "begin_81" : 0,
      "begin_77" : 0,
      "begin_114" : 0,
      "begin_12" : 0,
      "begin_78" : 0,
      "begin_82" : 0,
      "begin_13" : 0,
      "begin_83" : 0,
      "begin_79" : 0,
      "begin_115" : 0,
      "begin_14" : 0,
      "begin_84" : 0,
      "begin_15" : 0,
      "begin_85" : 0,
      "num_splits" : 3,
      "begin_116" : 0,
      "begin_120" : 0,
      "begin_20" : 0,
      "begin_86" : 0,
      "begin_16" : 0,
      "begin_90" : 0,
      "begin_21" : 0,
      "begin_91" : 0,
      "begin_87" : 0,
      "begin_17" : 0,
      "begin_117" : 0,
      "begin_121" : 0,
      "begin_18" : 0,
      "begin_92" : 0,
      "begin_88" : 0,
      "begin_22" : 0,
      "begin_23" : 0,
      "begin_89" : 0,
      "begin_19" : 0,
      "begin_93" : 0,
      "begin_118" : 0,
      "begin_122" : 0,
      "begin_24" : 0,
      "begin_94" : 0,
      "begin_25" : 0,
      "begin_95" : 0,
      "begin_119" : 0,
      "begin_123" : 0,
      "begin_30" : 0,
      "begin_26" : 0,
      "begin_96" : 0,
      "begin_124" : 0,
      "begin_31" : 0,
      "begin_97" : 0,
      "begin_27" : 0,
      "begin_28" : 0,
      "begin_98" : 0,
      "begin_32" : 0,
      "begin_125" : 0,
      "begin_33" : 0,
      "begin_29" : 0,
      "begin_99" : 0,
      "begin_1" : 0,
      "weights" : {

      },
      "begin_34" : 0,
      "bottom" : "794",
      "begin_3" : 0,
      "begin_126" : 0,
      "begin_35" : 0,
      "begin_5" : 0,
      "begin_36" : 0,
      "begin_40" : 0,
      "begin_127" : 0,
      "name" : "796",
      "begin_41" : 0,
      "begin_37" : 0,
      "begin_7" : 0,
      "begin_42" : 0,
      "begin_38" : 0,
      "begin_9" : 0,
      "begin_39" : 0,
      "begin_43" : 0,
      "begin_44" : 0,
      "begin_45" : 0,
      "begin_50" : 0,
      "begin_46" : 0,
      "begin_51" : 0,
      "begin_47" : 0,
      "begin_100" : 0,
      "begin_52" : 0,
      "debug_info" : "796",
      "begin_48" : 0,
      "top" : "796_0,796_1,796_2",
      "begin_101" : 0,
      "begin_53" : 0,
      "begin_49" : 0,
      "begin_54" : 0,
      "begin_55" : 0,
      "begin_102" : 0,
      "begin_60" : 0,
      "begin_56" : 0,
      "begin_103" : 0,
      "begin_57" : 0,
      "begin_61" : 0,
      "begin_62" : 0,
      "begin_58" : 0
    },
    {
      "bottom" : "796_0",
      "alpha" : 2,
      "operation" : 1,
      "weights" : {

      },
      "fused_relu" : 0,
      "debug_info" : "801",
      "top" : "801",
      "type" : "elementwise",
      "name" : "801",
      "beta" : 0
    },
    {
      "top" : "11",
      "w" : 2,
      "h" : 20,
      "name" : "11",
      "nd_rank" : 5,
      "type" : "load_constant",
      "k" : 20,
      "bottom" : "",
      "debug_info" : "11",
      "n" : 3,
      "weights" : {

      },
      "constant_blob" : 369
    },
    {
      "bottom" : "801,11",
      "alpha" : 1,
      "operation" : 0,
      "weights" : {

      },
      "fused_relu" : 0,
      "debug_info" : "802",
      "top" : "802",
      "type" : "elementwise",
      "name" : "802",
      "beta" : 0
    },
    {
      "bottom" : "802",
      "alpha" : 32,
      "operation" : 1,
      "weights" : {

      },
      "fused_relu" : 0,
      "debug_info" : "xy",
      "top" : "xy",
      "type" : "elementwise",
      "name" : "xy",
      "beta" : 0
    },
    {
      "bottom" : "796_1",
      "alpha" : 2,
      "operation" : 1,
      "weights" : {

      },
      "fused_relu" : 0,
      "debug_info" : "806",
      "top" : "806",
      "type" : "elementwise",
      "name" : "806",
      "beta" : 0
    },
    {
      "bottom" : "806",
      "alpha" : 2,
      "operation" : 13,
      "weights" : {

      },
      "fused_relu" : 0,
      "debug_info" : "807",
      "top" : "807",
      "type" : "elementwise",
      "name" : "807",
      "beta" : 0
    },
    {
      "top" : "12",
      "w" : 2,
      "h" : 20,
      "name" : "12",
      "nd_rank" : 5,
      "type" : "load_constant",
      "k" : 20,
      "bottom" : "",
      "debug_info" : "12",
      "n" : 3,
      "weights" : {

      },
      "constant_blob" : 371
    },
    {
      "bottom" : "807,12",
      "alpha" : 1,
      "operation" : 1,
      "weights" : {

      },
      "fused_relu" : 0,
      "debug_info" : "wh",
      "top" : "wh",
      "type" : "elementwise",
      "name" : "wh",
      "beta" : 0
    },
    {
      "bottom" : "xy,wh,796_2",
      "weights" : {

      },
      "nd_mode" : true,
      "axis" : 4,
      "debug_info" : "y",
      "top" : "y",
      "type" : "general_concat",
      "name" : "y"
    },
    {
      "name" : "816",
      "weights" : {

      },
      "dst_w" : 6,
      "version" : 1,
      "dst_n" : 1,
      "dst_nd_rank" : 3,
      "type" : "reshape",
      "dst_h" : 1200,
      "mode" : 0,
      "dynamic_shape" : false,
      "bottom" : "y",
      "debug_info" : "816",
      "dst_seq" : 1,
      "dst_k" : 1,
      "top" : "816"
    },
    {
      "bottom" : "736,776,816",
      "weights" : {

      },
      "nd_mode" : true,
      "axis" : 1,
      "debug_info" : "818",
      "top" : "818",
      "type" : "general_concat",
      "name" : "818"
    },
    {
      "size_of_axes" : 0,
      "bottom" : "818",
      "weights" : {

      },
      "nd_axis" : 0,
      "debug_info" : "819",
      "version" : 1,
      "top" : "819",
      "type" : "squeeze",
      "name" : "819",
      "squeeze_all" : true
    },
    {
      "begin_104" : 0,
      "begin_63" : 0,
      "begin_59" : 0,
      "begin_64" : 0,
      "begin_105" : 0,
      "begin_65" : 0,
      "begin_0" : 4,
      "begin_70" : 0,
      "begin_66" : 0,
      "begin_106" : 0,
      "begin_110" : 0,
      "begin_2" : 1,
      "begin_71" : 0,
      "begin_67" : 0,
      "begin_68" : 0,
      "begin_107" : 0,
      "begin_111" : 0,
      "begin_4" : 0,
      "begin_72" : 0,
      "begin_73" : 0,
      "begin_69" : 0,
      "begin_6" : 0,
      "begin_74" : 0,
      "begin_108" : 0,
      "type" : "split_nd",
      "begin_8" : 0,
      "begin_112" : 0,
      "begin_75" : 0,
      "begin_10" : 0,
      "begin_80" : 0,
      "begin_76" : 0,
      "begin_109" : 0,
      "begin_113" : 0,
      "begin_11" : 0,
      "nd_axis" : 1,
      "begin_81" : 0,
      "begin_77" : 0,
      "begin_114" : 0,
      "begin_12" : 0,
      "begin_78" : 0,
      "begin_82" : 0,
      "begin_13" : 0,
      "begin_83" : 0,
      "begin_79" : 0,
      "begin_115" : 0,
      "begin_14" : 0,
      "begin_84" : 0,
      "begin_15" : 0,
      "begin_85" : 0,
      "num_splits" : 3,
      "begin_116" : 0,
      "begin_120" : 0,
      "begin_20" : 0,
      "begin_86" : 0,
      "begin_16" : 0,
      "begin_90" : 0,
      "begin_21" : 0,
      "begin_91" : 0,
      "begin_87" : 0,
      "begin_17" : 0,
      "begin_117" : 0,
      "begin_121" : 0,
      "begin_18" : 0,
      "begin_92" : 0,
      "begin_88" : 0,
      "begin_22" : 0,
      "begin_23" : 0,
      "begin_89" : 0,
      "begin_19" : 0,
      "begin_93" : 0,
      "begin_118" : 0,
      "begin_122" : 0,
      "begin_24" : 0,
      "begin_94" : 0,
      "begin_25" : 0,
      "begin_95" : 0,
      "begin_119" : 0,
      "begin_123" : 0,
      "begin_30" : 0,
      "begin_26" : 0,
      "begin_96" : 0,
      "begin_124" : 0,
      "begin_31" : 0,
      "begin_97" : 0,
      "begin_27" : 0,
      "begin_28" : 0,
      "begin_98" : 0,
      "begin_32" : 0,
      "begin_125" : 0,
      "begin_33" : 0,
      "begin_29" : 0,
      "begin_99" : 0,
      "begin_1" : 1,
      "weights" : {

      },
      "begin_34" : 0,
      "bottom" : "819",
      "begin_3" : 0,
      "begin_126" : 0,
      "begin_35" : 0,
      "begin_5" : 0,
      "begin_36" : 0,
      "begin_40" : 0,
      "begin_127" : 0,
      "name" : "825",
      "begin_41" : 0,
      "begin_37" : 0,
      "begin_7" : 0,
      "begin_42" : 0,
      "begin_38" : 0,
      "begin_9" : 0,
      "begin_39" : 0,
      "begin_43" : 0,
      "begin_44" : 0,
      "begin_45" : 0,
      "begin_50" : 0,
      "begin_46" : 0,
      "begin_51" : 0,
      "begin_47" : 0,
      "begin_100" : 0,
      "begin_52" : 0,
      "debug_info" : "825",
      "begin_48" : 0,
      "top" : "825_0,825_1,825_2",
      "begin_101" : 0,
      "begin_53" : 0,
      "begin_49" : 0,
      "begin_54" : 0,
      "begin_55" : 0,
      "begin_102" : 0,
      "begin_60" : 0,
      "begin_56" : 0,
      "begin_103" : 0,
      "begin_57" : 0,
      "begin_61" : 0,
      "begin_62" : 0,
      "begin_58" : 0
    },
    {
      "bottom" : "825_2,825_1",
      "alpha" : 1,
      "operation" : 1,
      "beta" : 0,
      "weights" : {

      },
      "fused_relu" : 0,
      "debug_info" : "var_829",
      "top" : "var_829",
      "type" : "elementwise",
      "name" : "var_829",
      "attributes" : {
        "is_output" : 1
      }
    },
    {
      "bottom" : "825_0",
      "alpha" : 0.0015625000232830644,
      "operation" : 1,
      "beta" : 0,
      "weights" : {

      },
      "fused_relu" : 0,
      "debug_info" : "var_831",
      "top" : "var_831",
      "type" : "elementwise",
      "name" : "var_831",
      "attributes" : {
        "is_output" : 1
      }
    }
  ],
  "transform_params" : {
    "image" : {
      "bias_a" : 0,
      "bias_g" : 0,
      "bias_r" : 0,
      "bias_b" : 0,
      "center_mean" : 0,
      "is_network_bgr" : 0,
      "scale" : 0.0039215688593685627
    }
  },
  "storage" : "model.espresso.weights",
  "metadata_in_weights" : [

  ],
  "properties" : {

  },
  "analyses" : {

  },
  "format_version" : 200
}